ClassicalNetwork/Classification/0_Letnet/workspace/Lenet_20240313_212server.pth (torch, 487623 bytes, 10 tensors)

conv1.weight f4 [16, 3, 5, 5]
-0.29828802 -0.033176683 0.24023579 0.06303387 -0.1853773 -0.31665394 0.1363737 0.29327387
0.09380452 -0.25694817 -0.4278461 0.21806955 0.5156213 0.016378513 -0.25542042 -0.2869759
0.290481 0.44939357 -0.2510562 -0.26144487 -0.13892764 0.1903402 0.14277503 -0.19649887
-0.12553713 -0.15275617 0.05725336 0.17254992 0.2727427 0.049673438 -0.17761317 0.23131213
0.41702017 0.13057709 -0.044662952 -0.33760715 0.07243007 0.39111987 -0.16709949 -0.3308534
-0.20005783 0.16313455 0.20773152 -0.22220388 -0.17753454 -0.19202068 0.15962473 0.18563312
-0.08301713 0.056882277 -0.18718667 -0.035813183 0.14518644 -0.07604929 -0.13442035 -0.14045368
-0.0014982949 0.16247584 -0.14677055 -0.16928196 -0.23210542 0.08164514 0.20957041 -0.15645143
-0.02485908 -0.12378708 0.19426669 0.11317709 -0.06743358 0.08912556 -0.12649827 0.23322819
0.19046712 -0.1474021 0.08460772 -0.34454638 -0.45799637 -0.45944238 -0.38494012 -0.2768096
0.029563015 -0.036917157 -0.27420196 -0.18049498 -0.21496232 0.25856236 0.3107492 0.25321808
0.31823945 0.35085815 0.256531 0.38401604 0.37053856 0.17553264 0.26370636 -0.1710667
-0.08410364 -0.07761944 -0.09131873 -0.057914585 -0.10903507 -0.25172547 -0.23662886 -0.13771749
0.09964048 -0.0015516913 0.15273497 -0.102415815 -0.013781369 -0.010576552 0.095462106 0.22425987
0.24718465 0.424638 0.359377 -0.016614547 0.24185692 0.24243668 -0.013679853 0.11519896
-0.15895389 -0.28423977 -0.12286319 -0.24176715 -0.17148031 0.10603361 -0.030823035 -0.03323349
-0.027193796 0.096945584 -0.07289656 0.17407963 0.019617805 -0.011757844 -0.22086191 -0.013634297
0.016644102 0.07107534 0.23638943 0.1337223 0.003365031 0.03753151 -0.08899313 -0.04233055
-0.007443954 -0.025045784 -0.23655206 -0.1226248 -0.12753056 0.013224604 -0.10762169 -0.08300035
-0.04659233 -0.008210934 0.07104486 0.071744926 0.14915705 0.13627106 -0.07611996 -0.12576059
-0.07899621 0.36276498 0.17367151 -0.1833721 -0.14225987 -0.15675311 0.03460679 0.102543145
0.011807621 -0.1161984 -0.17498294 0.048077617 0.05510998 0.056668997 0.08943411 0.071513526
0.10056465 -0.06493014 -0.12971269 0.014789727 0.02127502 0.19439252 -0.04718826 -0.29880342
-0.18057261 0.05464562 0.35128552 0.12446723 -0.12074056 -0.3676772 0.030077873 0.15666884
0.18524037 -0.15866034 -0.23668475 -0.07520253 0.1158652 -0.025235292 -0.075669765 -0.14551115
0.16409414 0.012343611 0.026061442 -0.24001884 -0.029703185 0.23760623 0.2122704 -0.011682229
-0.34953272 -0.38052666 0.21195601 0.3810011 0.09672721 -0.1506291 -0.43958694 0.17115508
0.29697955 0.21097563 -0.20253879 -0.45060262 0.14960468 0.15598093 0.23453015 -0.003496702
-0.15140103 -0.13151363 0.021030072 0.074476376 0.012758674 -0.022305343 -0.11434546 -0.048407532
0.1373593 -0.0066653425 0.15776382 -0.14413199 -0.055383965 0.045484014 0.18762729 0.06078179
-0.12372157 -0.20693001 -0.023156723 0.2552654 0.20974016 -0.13038547 -0.29409817 -0.2113126
0.19363452 0.18171793 0.006069564 0.13954403 -0.005345592 -0.073680565 -0.009799262 0.08301998
00000000: 35b9 98be 46e4 07bd 5f00 763e e717 813d
00000010: 8cd3 3dbe 7720 a2be 8ca5 0b3e fe27 963e
00000020: 961c c03d b68e 83be a50e dbbe a04d 5f3e
00000030: c2ff 033f 3b2c 863c 77c6 82be 81ee 92be
00000040: edb9 943e ea16 e63e 708a 80be 1adc 85be
00000050: 0c43 0ebe 8be8 423e 9e33 123e 0037 49be
00000060: ce8c 00be 1d6c 1cbe 8082 6a3d edb0 303e
00000070: eea4 8b3e 6076 4b3d 3ae0 35be 16dd 6c3e
00000080: ab83 d53e 00b6 053e 80f0 36bd d8da acbe
00000090: 3756 943d dd40 c83e 211c 2bbe 9e65 a9be
000000a0: f6db 4cbe be0c 273e 92b7 543e 6a89 63be
000000b0: 9dcb 35be 12a1 44be aa74 233e 9c16 3e3e
000000c0: e304 aabd 64fd 683d ddad 3fbe d8b0 12bd
000000d0: c1ab 143e bbbf 9bbd 7da5 09be 17d3 0fbe
000000e0: 6f62 c4ba 1160 263e 054b 16be 4058 2dbe
000000f0: 0bad 6dbe 9135 a73d a099 563e ce34 20be
00000100: 45a5 cbbc 1584 fdbd d9ed 463e 64c9 e73d
00000110: 9e1a 8abd 7687 b63d c388 01be 5fd3 6e3e
00000120: d009 433e 93f0 16be d046 ad3d 6268 b0be
00000130: 807e eabe 083c ebbe df16 c5be fdb9 8dbe
00000140: 232e f23c 7236 17bd 3364 8cbe add3 38be
00000150: 151f 5cbe 4962 843e 851a 9f3e cda5 813e
00000160: 48f0 a23e aea3 b33e 0858 833e c09d c43e
00000170: 3bb7 bd3e d4be 333e 8504 873e 1c2c 2fbe
00000180: 873e acbd f1f6 9ebd 5005 bbbd d837 6dbd
00000190: c74d dfbd 29e2 80be d64e 72be d005 0dbe
000001a0: 4f10 cc3d 1f62 cbba 8e66 1c3e 62bf d1bd
000001b0: 40cb 61bc 4649 2dbc a381 c33d 61a4 653e
000001c0: f91d 7d3e 276a d93e 4300 b83e 3b1b 88bc
000001d0: 57a9 773e 5241 783e 7621 60bc 6fed eb3d
000001e0: cfc4 22be e087 91be b29f fbbd cf91 77be
000001f0: 8998 2fbe 2628 d93d 9780 fcbc d71f 08bd
00000200: 86c5 debc 688b c63d cb4a 95bd ee41 323e
00000210: 85b5 a03c f9a3 40bc a029 62be 6362 5fbc
00000220: 3659 883c f38f 913d 1210 723e 80ee 083e
00000230: da87 5c3b a4ba 193d 0842 b6bd cc62 2dbd
00000240: 69ec f3bb d12c cdbc b43a 72be b622 fbbd
00000250: 5f97 02be 02ac 583c c368 dcbd 16fc a9bd
00000260: 99d7 3ebd 2787 06bc f87f 913d 01ef 923d
00000270: a0bc 183e a48a 0b3e c8e4 9bbd 62c7 00be
00000280: c4c8 a1bd 55bc b93e f2d6 313e e5c5 3bbe
00000290: 92ac 11be e383 20be d9bf 0d3d 2402 d23d
000002a0: c174 413c 6df9 edbd ba2e 33be 09ed 443d
000002b0: 01bb 613d c01d 683d 3b29 b73d af75 923d
000002c0: d7f4 cd3d 18fa 84bd 67d3 04be 9c50 723c
000002d0: f348 ae3c d50e 473e 7a48 41bd c3fc 98be
000002e0: 07e8 38be 16d4 5f3d b2db b33e ade8 fe3d
000002f0: d446 f7bd 3040 bcbe df65 f63c cc6d 203e
00000300: a7af 3d3e db77 22be 7d5d 72be c903 9abd
00000310: bc4a ed3d 3eba cebc c0f8 9abd e000 15be
00000320: 4b08 283e db3c 4a3c ce7e d53c 80c7 75be
00000330: 1854 f3bc 0c4f 733e 695d 593e d266 3fbc
00000340: f4f5 b2be 64d4 c2be ff0a 593e 9412 c33e
00000350: ea18 c63d 843e 1abe 8a11 e1be 4743 2f3e
00000360: b40d 983e ff09 583e 5466 4fbe 63b5 e6be
00000370: f831 193e 77b9 1f3e ac28 703e ed28 65bb
00000380: df08 1bbe 82ab 06be 4247 ac3c 1287 983d
00000390: c209 513c b2b9 b6bc f42d eabd fa46 46bd
000003a0: eba7 0c3e f268 dabb d78c 213e 5697 13be
000003b0: 4cda 62bd 724d 3a3d 5e21 403e 54f6 783d
000003c0: bc61 fdbd 76e5 53be 2bb3 bdbc 26b2 823e
000003d0: 20c6 563e c583 05be 0994 96be 5562 58be
000003e0: 2148 463e 4414 3a3e 31e3 c63b a1e4 0e3e
000003f0: 132a afbb d6e5 96bd 158d 20bc 6106 aa3d

conv1.bias f4 [16]
-0.49134 -0.32996064 -0.2676876 -0.26252848 -0.7007315 -0.5378046 -0.25180855 -0.3929552
-0.34378242 0.19277477 -0.2846344 -0.15734376 -0.36340138 -0.079209015 -0.48052728 -0.1681665
00000000: eb90 fbbe 9af0 a8be 590e 89be 226a 86be
00000010: 2463 33bf 90ad 09bf 0ded 80be 6d31 c9be
00000020: 4004 b0be c066 453e 9abb 91be b91e 21be
00000030: bf0f babe 5638 a2bd ac07 f6be d733 2cbe

conv2.weight f4 [32, 16, 5, 5]
-0.13085447 0.023611924 -0.028045272 0.18425897 -0.15514933 0.13316903 0.10313959 0.049428444
-0.15866598 0.14901865 0.4014965 0.1159768 0.10667434 0.06897244 0.15396117 0.566302
0.12446817 -0.4874392 -0.27508917 -0.008385733 0.1997996 -0.47422105 -0.39368173 -0.31786302
0.09245765 -0.10747764 0.1684637 -0.14236385 -0.32148623 -0.10358202 -0.2811683 0.043157153
-0.21699582 -0.3341199 -0.19875507 0.16841948 0.11768274 -0.458975 -0.48899755 -0.29558846
0.089692295 0.0022563154 -0.20290394 -0.135277 -0.09084009 0.15167952 0.044059694 0.09126226
-0.06870595 -0.22886322 0.06535592 0.11587116 0.23481241 0.08159896 -0.23891087 0.08047598
0.07111268 0.0064761173 -0.27138507 -0.32222646 -0.059520137 -0.10958346 -0.020798963 -0.74896795
-0.1894729 0.024664192 -0.28924054 -0.44771996 -0.6848885 -0.25140187 -0.16194771 -0.02904215
-0.3233375 -0.7386255 -0.08882659 0.1918634 0.22803731 -0.18141551 -0.008374218 0.33996618
-0.004958977 -0.12380924 -0.00036642895 0.26880312 0.31793293 0.11275886 0.024275383 0.2042871
0.2989865 0.26438695 0.057221532 0.33466768 0.13354164 0.1506036 -0.18367389 -0.06348423
0.0602764 -0.06587728 -0.2879184 -0.73341346 0.006124247 0.23813732 -0.08569438 0.08136051
0.002281321 0.06601728 0.19392894 -0.13424215 -0.07892005 0.03940374 -0.14751609 -0.27429512
-0.38036823 -0.008840917 0.08580076 0.114795595 -0.00095847197 -0.13347532 -0.19986229 -0.20168656
0.23780465 -0.12098106 -0.17076798 -0.08477199 -0.34386116 0.12332674 0.067309655 -0.018798636
0.0029356477 0.2504878 -0.27218118 0.052357163 -0.22529091 0.029401816 0.19171672 -0.43648213
-0.03063628 0.18522702 0.33640268 0.082837075 0.0592204 0.4072061 0.14791189 0.13497603
-0.14423752 0.13248347 0.11906236 -0.3512895 -0.51846784 -0.50617397 0.16464524 0.035171926
0.18919025 -0.035761572 -0.10153341 0.050256208 0.22275834 0.12494096 0.10649722 -0.18790406
0.18363194 0.046909973 -0.22026828 -0.061416313 -0.024565658 -0.16162097 -0.3449712 -0.16224125
-0.21885374 0.08225241 -0.15732184 -0.1522953 -0.10604446 0.08312518 0.16305974 0.056636535
0.33909848 -0.13815704 -0.5194259 0.27552757 0.10049268 -0.024882086 -0.15552324 -0.11616623
0.51000136 -0.3778905 -0.09625058 0.06883628 0.33684662 0.12417644 0.16879937 0.4756712
0.28795922 0.3786542 0.41212046 0.29131475 0.6213668 0.08789519 0.63511765 0.2625851
-0.17329396 -0.2546839 -0.13210194 0.035191223 -0.06429072 -0.4185705 0.09595127 -0.010386189
0.22286439 -0.32170954 -0.09593903 0.09281456 -0.39978763 -0.07256443 -0.25782478 -0.25740197
-0.24429314 -0.55576015 -0.7115527 -0.37536532 -0.24256541 -0.045206428 -0.15562934 -0.21109602
-0.34348217 0.09575946 0.33973822 0.13468063 -0.05607739 -0.05005051 0.08031539 -0.02773217
-0.22550376 -0.3115304 0.13096756 -0.09262119 -0.41243172 -0.39945272 -0.11255974 0.16438955
-0.46394825 -0.2523355 -0.160455 0.05524494 0.33586866 -0.024238488 0.28548193 0.20237778
0.1639518 0.37065756 0.09294955 -0.25052252 0.20857109 0.25906923 0.190048 0.22835915
00000000: b7fe 05be cb6d c13c 33bf e5bc 62ae 3c3e
00000010: 77df 1ebe 765d 083e d93a d33d 7b75 4a3d
00000020: 5679 22be 5898 183e f390 cd3e 3f85 ed3d
00000030: 1478 da3d 6c41 8d3d ffa7 1d3e 2bf9 103f
00000040: 2be9 fe3d a191 f9be 7dd8 8cbe 5064 09bc
00000050: 4498 4c3e 1acd f2be a790 c9be f1be a2be
00000060: 705a bd3d 3d1d dcbd c081 2c3e d4c7 11be
00000070: d899 a4be cf22 d4bd 4bf5 8fbe 8ec5 303d
00000080: 2734 5ebe c311 abbe 7386 4bbe 2876 2c3e
00000090: a603 f13d c5fe eabe e35d fabe 5f57 97be
000000a0: 98b0 b73d b1de 133b 0dc6 4fbe 0e86 0abe
000000b0: 5e0a babd e051 1b3e f077 343d b5e7 ba3d
000000c0: b5b5 8cbd 1f5b 6abe 53d9 853d dc4d ed3d
000000d0: aa72 703e 5b1d a73d 0da5 74be 97d0 a43d
000000e0: 86a3 913d 9c35 d43b fcf2 8abe defa a4be
000000f0: 63cb 73bd 4b6d e0bd 9662 aabc 5dbc 3fbf
00000100: 2f05 42be 8f0c ca3c 5617 94be 8d3b e5be
00000110: da54 2fbf bfb7 80be 9fd5 25be cee9 edbc
00000120: 7e8c a5be 9016 3dbf b7ea b5bd d777 443e
00000130: 9d82 693e fdc4 39be 0434 09bc 0c10 ae3e
00000140: ea7e a2bb b38f fdbd 431d c0b9 90a0 893e
00000150: 1bc8 a23e 1eee e63d 2bdd c63c a330 513e
00000160: c214 993e ba5d 873e 2061 6a3d 9059 ab3e
00000170: 24bf 083e d537 1a3e 0215 3cbe 0504 82bd
00000180: 63e4 763d abea 86bd 0a6a 93be fcc0 3bbf
00000190: e8ad c83b 45da 733e 8980 afbd 57a0 a63d
000001a0: 3782 153b 1134 873d 4f95 463e c676 09be
000001b0: d6a0 a1bd d165 213d 750e 17be 6970 8cbe
000001c0: a0bf c2be 7ed9 10bc 4fb8 af3d f419 eb3d
000001d0: f741 7bba c1ad 08be b3a8 4cbe ec86 4ebe
000001e0: 1083 733e ebc4 f7bd cddd 2ebe f09c adbd
000001f0: 920e b0be bb92 fc3d a5d9 893d 99ff 99bc
00000200: ff63 403b f03f 803e 555b 8bbe 7774 563d
00000210: a9b2 66be 14dc f03c 6351 443e 967a dfbe
00000220: f0f8 fabc 27ac 3d3e f93c ac3e 7ca6 a93d
00000230: 1791 723d 517d d03e 3776 173e 2837 0a3e
00000240: 00b3 13be bfa9 073e f7d6 f33d 38dc b3be
00000250: 4fba 04bf 9e94 01bf c398 283e 7010 103d
00000260: 17bb 413e ba7a 12bd c0f0 cfbd 74d9 4d3d
00000270: c31a 643e 0ce1 ff3d 371b da3d ec69 40be
00000280: 030a 3c3e ac24 403d 028e 61be ac8f 7bbd
00000290: eb3d c9bc f87f 25be 11a0 b0be 9222 26be
000002a0: 321b 60be f473 a83d fa18 21be 4df3 1bbe
000002b0: d62d d9bd 893d aa3d 22f9 263e b6fb 673d
000002c0: 519e ad3e 0a79 0dbe 19f9 04bf f311 8d3e
000002d0: 1bcf cd3d 84d5 cbbc 7c41 1fbe 8fe8 edbd
000002e0: 738f 023f dd7a c1be 061f c5bd 09fa 8c3d
000002f0: 2977 ac3e 3850 fe3d bed9 2c3e 2d8b f33e
00000300: 646f 933e f7de c13e 7401 d33e 3527 953e
00000310: e511 1f3f 6502 b43d 1297 223f 8e71 863e
00000320: f973 31be ee65 82be bb45 07be ac24 103d
00000330: daaa 83bd df4e d6be 1982 c43d d62a 2abc
00000340: 9036 643e 1db7 a4be af7b c4bd 8f15 be3d
00000350: f7b0 ccbe a99c 94bd 9c01 84be 31ca 83be
00000360: fb27 7abe 4c46 0ebf 5128 36bf e22f c0be
00000370: 1163 78be 602a 39bd 4c5d 1fbe 8e29 58be
00000380: e5dc afbe 891d c43d 2bf2 ad3e b8e9 093e
00000390: 68b1 65bd c301 4dbd 657c a43d 932e e3bc
000003a0: 75ea 66be ea80 9fbe 5c1c 063e 2eb0 bdbd
000003b0: 402a d3be 1185 ccbe b985 e6bd bc55 283e
000003c0: a08a edbe 1e32 81be 514e 24be 8548 623d
000003d0: faf6 ab3e cb8f c6bc b02a 923e 1f3c 4f3e
000003e0: fbe2 273e d4c6 bd3e 555c be3d 7d44 80be
000003f0: a993 553e b9a4 843e f19b 423e fbd6 693e

conv2.bias f4 [32]
-0.17323254 0.57078505 -0.083151355 0.01472034 -1.1893184 -1.0541185 0.6318492 -1.0863482
-0.8323679 -0.7120388 0.28068858 0.01289583 -0.4471859 -0.23511763 0.17961027 0.7970539
0.02714074 -0.59686273 -0.45621422 0.6899557 -0.33730665 1.4823357 0.029812464 0.117323294
0.2828516 -0.06785247 0.40081775 0.23845457 0.32450518 -0.75793207 0.5214182 -0.003667996
00000000: df63 31be f81e 123f 424b aabd 952d 713c
00000010: 963b 98bf 5bed 86bf dfc0 213f 750d 8bbf
00000020: 1016 55bf 2d48 36bf 6ab6 8f3e 0849 533c
00000030: 8df5 e4be adc2 70be c1eb 373e b90b 4c3f
00000040: 4256 de3c ffcb 18bf e994 e9be f0a0 303f
00000050: 75b3 acbe 2dbd bd3f 4539 f43c 3247 f03d
00000060: edd1 903e 3cf6 8abd fc37 cd3e 6f2d 743e
00000070: 8b25 a63e d607 42bf aa7b 053f c362 70bb

fc1.weight f4 [120, 800]
-0.69536495 0.09523013 0.3679907 0.33865267 -0.01703088 -0.09650356 0.4096788 0.24733897
0.40469283 -0.13974297 0.22505128 -0.14433919 0.1161179 0.055500757 0.24187203 -0.14905293
-0.3911769 -0.566717 0.2694874 0.2804974 0.15501831 -0.6481181 -0.36946714 -0.3905468
-0.35497963 -0.011035542 0.04864248 0.050033957 -0.27679333 0.02646568 0.19240943 0.29126322
0.3316206 -0.317789 -0.25672004 0.39935517 -0.010705796 -0.2737109 0.022761507 0.011749165
0.14446607 -0.38781247 0.1570037 -0.068600915 0.040380765 0.20933373 0.2138619 0.05367391
-0.039347082 0.28195843 0.030931415 -0.005124891 0.050782204 -0.016658003 0.026576025 0.03946355
0.051223397 -0.009109573 0.05227205 -0.01257717 -0.003640372 0.038292788 0.013132802 0.013722786
0.045095813 0.042122904 0.040439088 -0.023209753 -0.007513956 0.01048647 0.062464025 -0.011892592
0.043341983 0.025628898 0.0041199843 0.07378918 -0.1349333 -0.27075025 -0.21319088 -0.011205959
-0.057962745 0.25397515 0.063661985 -0.15508947 0.11824092 0.33780992 0.3699239 -0.026634376
-0.08993346 0.013404318 0.08804684 -0.029298913 -0.0038009023 -0.20677722 0.011462454 0.12248566
0.052840304 -0.24705756 -0.011250422 0.030226033 -0.05716748 -0.3643268 0.17918009 -0.15548573
0.3897054 -0.24364595 -0.12579106 0.20862028 0.34326202 0.15252843 0.08206931 0.25447285
0.18485904 0.10029963 0.4276154 -0.16579866 -0.03300604 -0.2738045 0.2008466 0.014266773
-0.612694 -0.33430693 -0.031142386 0.027847046 0.08119009 -0.62120044 -0.12821886 -0.45831656
-0.103642665 -0.41581094 0.089170486 0.16579026 -0.17289238 -0.18853422 0.30041358 0.30606782
0.44794255 -0.34271482 0.3561415 0.15441209 -0.48724094 0.07649018 -0.38523185 -0.009769294
-0.016122378 -0.6073028 -0.049839206 -0.20510805 -0.22346635 -0.22208111 -0.58544266 -0.0016978806
-0.05629642 0.29610023 0.35822728 -0.3702812 -0.103111245 -0.081962235 0.39948487 0.4164036
0.016504887 0.041851293 -0.20741367 0.13799454 -0.18563573 0.1250905 -0.17717461 0.23552668
0.55032367 -0.39444727 -0.052057493 0.0807075 0.039714724 0.308736 -0.123159595 -0.20238467
-0.5951469 -0.2136662 0.027386708 -0.3406877 -0.07761684 0.29122728 0.047940437 0.22445296
-0.17603153 0.0054376167 0.29835263 -0.15698244 0.009042686 -0.37753516 -0.0068565933 0.24115905
-0.11284116 0.06463629 -0.43210086 0.42950264 0.3226199 -0.21925907 0.19533187 -0.2929636
0.73151857 0.016231056 0.10670272 0.1803661 0.023108864 0.21873038 -0.19185086 -0.22714712
-0.114746734 -0.26616257 -0.027984342 -0.25154004 -0.022613674 0.1119256 0.3073669 -0.06536119
-0.12793086 0.16122001 0.12637502 -0.047735535 -0.59698 -0.10376079 -0.38448784 -0.16245629
-0.7316036 -0.12381602 -0.34202334 -0.119987264 0.07153946 -0.64244455 0.3000376 -0.10270025
0.18042997 0.3871947 -0.04539119 0.009466535 0.11590132 0.08670017 -0.043819536 0.35913828
0.15214272 0.19332767 0.05770396 -0.20569536 0.026741369 -0.07988736 0.43232292 0.36159143
0.2598296 -0.2531286 -0.48313707 -0.12893242 0.14089365 0.023841131 -0.25109106 -0.6469319
00000000: 7003 32bf 0408 c33d 4769 bc3e e263 ad3e
00000010: 5884 8bbc a9a3 c5bd 6bc1 d13e 6d46 7d3e
00000020: e633 cf3e c818 0fbe d873 663e a7cd 13be
00000030: 39cf ed3d c354 633d 4dad 773e 55a1 18be
00000040: 5748 c8be 5e14 11bf 41fa 893e 5b9d 8f3e
00000050: 1fbd 1e3e 11eb 25bf cc2a bdbe c0f5 c7be
00000060: e4bf b5be 6bce 34bc 563d 473d 68f0 4c3d
00000070: dbb7 8dbe 8ece d83c fa06 453e 7420 953e
00000080: 2dca a93e 3db5 a2be cf70 83be 4878 cc3e
00000090: 5d67 2fbc d623 8cbe 5776 ba3c 927f 403c
000000a0: eaee 133e 5b8f c6be 94c5 203e a37e 8cbd
000000b0: 4d66 253d 955b 563e 9dfe 5a3e 2dd9 5b3d
000000c0: 682a 21bd db5c 903e e163 fd3c b4ee a7bb
000000d0: 0001 503d 5d76 88bc f7b5 d93c 88a4 213d
000000e0: a0cf 513d 5240 15bc 381b 563d 7910 4ebc
000000f0: 4f93 6ebb e6d8 1c3d f72a 573c 89d5 603c
00000100: 63b6 383d 1189 2c3d 75a3 253d 6122 bebc
00000110: a237 f6bb 71cf 2b3c 47da 7f3d 25d9 42bc
00000120: 5d87 313d b2f3 d13c ef00 873b c81e 973d
00000130: f42b 0abe c79f 8abe b64e 5abe 3399 37bc
00000140: 586a 6dbd 0809 823e 3761 823d c6cf 1ebe
00000150: 4c28 f23d 6cf5 ac3e aa66 bd3e 5630 dabc
00000160: 092f b8bd c99d 5b3c e751 b43d 4604 f0bc
00000170: 8f18 79bb 68bd 53be 04cd 3b3c c3d9 fa3d
00000180: 136f 583d a8fc 7cbe b153 38bc 969c f73c
00000190: 7328 6abd 0b89 babe fc7a 373e a737 1fbe
000001a0: 7787 c73e 537e 79be 5fcf 00be 8ea0 553e
000001b0: 0ac0 af3e 6a30 1c3e f413 a83d 444a 823e
000001c0: b04b 3d3e e469 cd3d 68f0 da3e 20c7 29be
000001d0: 5731 07bd 1a30 8cbe bbaa 4d3e 2fbf 693c
000001e0: 84d9 1cbf 472a abbe 511e ffbc 7d1f e43c
000001f0: fd46 a63d fe06 1fbf ce4b 03be 78a8 eabe
00000200: 9b42 d4bd 2ce5 d4be 049f b63d ecc4 293e
00000210: b30a 31be 1d0f 41be cfcf 993e ecb4 9c3e
00000220: ba58 e53e 5178 afbe 2e58 b63e 341e 1e3e
00000230: a577 f9be e2a6 9c3d 1c3d c5be 640f 20bc
00000240: 1413 84bc 3278 1bbf 3224 4cbd d807 52be
00000250: 5dd4 64be 3b69 63be 92df 15bf 6b8b deba
00000260: 1397 66bd 739a 973e 9169 b73e 7f95 bdbe
00000270: fd2b d3bd d1db a7bd 4889 cc3e da32 d53e
00000280: 4235 873c 436c 2b3d 4064 54be 714e 0d3e
00000290: 4b17 3ebe b917 003e 436d 35be e82d 713e
000002a0: 03e2 0c3f fef4 c9be 3d3a 55bd f949 a53d
000002b0: e8ab 223d a512 9e3e 193b fcbd ed3d 4fbe
000002c0: 8c5b 18bf 50cb 5abe 175a e03c 9e6e aebe
000002d0: 94f5 9ebd be1b 953e 315d 443d ffd6 653e
000002e0: 9c41 34be 092e b23b adc1 983e 01c0 20be
000002f0: c627 143c 4a4c c1be 46ad e0bb 66f2 763e
00000300: 4419 e7bd 0860 843d 533c ddbe c5e7 db3e
00000310: 6f2e a53e 7385 60be 1405 483e 53ff 95be
00000320: cd44 3b3f fef6 843c f586 da3d e4b1 383e
00000330: cd4e bd3c dbfa 5f3e 8d74 44be 4199 68be
00000340: 5600 ebbd 7646 88be 6b3f e5bc dbc9 80be
00000350: 5040 b9bc 4039 e53d 325f 9d3e 16dc 85bd
00000360: 4f00 03be dc16 253e 7468 013e 5686 43bd
00000370: aed3 18bf 8980 d4bd 97db c4be f15a 26be
00000380: 604a 3bbf 4193 fdbd af1d afbe e2bb f5bd
00000390: 4883 923d 3f77 24bf 879e 993e 8254 d2bd
000003a0: a2c2 383e 623e c63e 1dec 39bd 8719 1b3c
000003b0: ac5d ed3d dc8f b13d 1d7c 33bd f9e0 b73e
000003c0: 4dcb 1b3e b0f7 453e fd5a 6c3d cea1 52be
000003d0: b710 db3c fc9b a3bd 6e59 dd3e 8322 b93e
000003e0: 6308 853e 129a 81be be5d f7be dc06 04be
000003f0: 6d46 103e 7a4e c33c 028f 80be 549d 25bf

fc1.bias f4 [120]
0.16808428 -0.09575822 0.0054365774 -0.2167279 0.009224295 0.09412528 -0.036692686 0.0023749063
-0.19758098 -0.71341383 0.09619606 0.46564874 -0.08408372 0.62928903 -0.07184074 -0.054891363
-0.06555122 -0.0498358 -0.54785 -0.5546324 -0.055459477 -0.7566544 -0.014002565 1.1210221
0.58459854 -0.057277035 -0.08974326 0.2268974 0.684533 0.35394034 0.36588335 -0.015975682
-0.39314258 0.029560072 -0.0025580295 0.5456753 0.3277458 0.000715098 -0.3951219 0.38030064
-0.052746877 0.4240898 -0.034330074 0.035832588 -0.031919796 0.025906196 -0.36251903 0.19788054
1.1374456 1.1696608 0.109111466 0.6136716 0.6889149 1.184187 -0.93457896 -0.008407275
-0.054471046 -0.0133034885 0.2503509 0.01883544 -0.05154511 0.0023977663 -0.04843857 -0.026001051
0.020589998 -0.05533359 0.73344094 -0.066816255 0.09931503 -0.035338484 -0.009899568 0.6150177
-0.27625936 0.02457183 0.0069094836 -0.03899839 -0.019206941 0.008269587 0.008589511 -0.045617998
0.07199066 -0.21136162 0.4403052 0.42543674 0.37479007 -0.071029834 -0.050586212 0.57513964
-0.04279897 -0.37397057 0.19985494 -0.09560797 0.1920317 -0.04465892 0.29037908 0.0012228001
0.19779456 -0.053641148 0.18635708 0.009514627 0.33155665 -0.0019372386 0.15013298 1.0095983
0.011021868 -0.0027863823 -0.063326344 0.06274389 0.00027077383 -0.10102974 -1.0823798 -0.00858872
-0.013856084 0.019798208 -0.03273738 -0.039074205 -0.04617663 -0.048675913 0.10426988 -0.05407272
00000000: 491e 2c3e e31c c4bd 5125 b23b ebed 5dbe
00000010: 7f21 173c c1c4 c03d 124b 16bd 51a4 1b3b
00000020: ab52 4abe 4aa2 36bf 7102 c53d 8369 ee3e
00000030: 1634 acbd 1619 213f 3d21 93bd c4d5 60bd
00000040: b83f 86bd a020 4cbd e63f 0cbf 64fc 0dbf
00000050: 7a29 63bd 1ab4 41bf 046b 65bc a77d 8f3f
00000060: 40a8 153f 539b 6abd 50cb b7bd cb57 683e
00000070: 8e3d 2f3f ab37 b53e 1055 bb3e 6fdf 82bc
00000080: fc49 c9be f727 f23c 9da4 27bb 60b1 0b3f
00000090: 4cce a73e 6a75 3b3a 6b4d cabe c4b6 c23e
000000a0: 1c0d 58bd 4c22 d93e b19d 0cbd 31c5 123d
000000b0: 55be 02bd 3b39 d43c 189c b9be 32a1 4a3e
000000c0: d197 913f 72b7 953f d575 df3d 9519 1d3f
000000d0: ba5c 303f 7193 973f 9140 6fbf abbe 09bc
000000e0: 081d 5fbd e0f6 59bc fe2d 803e c84c 9a3c
000000f0: f720 53bd d823 1d3b 8667 46bd 2800 d5bc
00000100: 5bac a83c 79a5 62bd c9c2 3b3f f6d6 88bd
00000110: ae65 cb3d 16bf 10bd cc31 22bc cd71 1d3f
00000120: de71 8dbe dd4a c93c f368 e23b c7bc 1fbd
00000130: e057 9dbc 297d 073c 05bb 0c3c f0d9 3abd
00000140: d76f 933d 2e6f 58be af6f e13e d8d2 d93e
00000150: 7ce4 bf3e 1778 91bd 7d33 4fbd 5a3c 133f
00000160: f94d 2fbd 1279 bfbe c6a6 4c3e 1dce c3bd
00000170: f5a3 443e 46ec 36bd 91ac 943e 5d46 a03a
00000180: a88a 4a3e d2b6 5bbd 64d4 3e3e 3de3 1b3c
00000190: cbc1 a93e f1ea fdba 76bc 193e 843a 813f
000001a0: 1195 343c bd9b 36bb 3eb1 81bd de7f 803d
000001b0: a6f6 8d39 aee8 cebd 6c8b 8abf b4b7 0cbc
000001c0: a104 63bc da2f a23c a217 06bd 460c 20bd
000001d0: b523 3dbd 6560 47bd 728b d53d 5b7b 5dbd

fc2.weight f4 [84, 120]
-0.030892713 -0.5847413 -0.038135063 -0.14440309 -0.021569176 0.10226156 -0.38291842 -0.46455503
0.117704645 -0.053703442 0.16525045 -0.10659508 -0.17995156 0.2136343 -0.013701944 0.033375997
0.052510634 -0.12906589 -0.7807361 -0.29094663 -0.028448086 0.2837227 0.04950488 0.19292389
0.19308129 0.043330863 0.07766715 0.2414319 0.09728674 0.15801457 -0.0469905 -0.03689306
-0.037820756 -0.2005875 0.101209186 0.28264138 0.06540134 0.066110596 0.24771631 -0.19777302
0.033843827 -0.67009985 0.075901225 0.42467043 0.002641734 -0.06621805 -0.19311169 0.0035203507
-0.11201944 0.2457239 0.13114604 0.34535676 -0.32079136 0.30594036 0.059271082 -0.044222858
0.060997937 -0.0018745715 -0.1833632 0.23690484 -0.01582702 -0.025266213 -0.030360945 -0.0073785027
0.07171505 -0.028063001 -0.30304086 -0.08317277 -0.016217897 -0.0067963256 0.101336315 0.26622292
-0.074218035 0.13628589 0.15107024 -0.016964413 -0.025235929 0.046938907 0.0059695235 -0.018221797
0.20381445 -0.5343402 0.2748132 0.095680244 -0.08136015 -0.046142608 -0.010224447 -0.29700294
-0.0200106 -0.10999833 -0.46973407 -0.34765407 -0.34862193 -0.045775644 -0.115246415 0.023169667
0.5541864 -0.010639192 -0.42772952 -0.012753878 0.021972734 0.10884814 0.13982214 -0.31349033
-0.059095334 -0.043764737 0.032124683 -0.35080427 -0.07392339 -0.44740334 -0.0677883 0.04660242
0.010970701 -0.0395421 -0.055339567 -0.01734527 0.022446085 0.06808881 0.1369137 -0.06582178
0.10751841 0.040586215 0.08265887 -0.566566 0.036092576 -0.6455505 0.030772528 0.07901466
0.01897946 0.10377503 0.12352633 -0.09674574 0.034617666 0.015626075 -0.043634377 0.0046958826
-0.020284194 0.11186329 0.12158486 -0.41483867 -0.0060125077 0.043515738 0.061353385 -0.14048004
-0.037207253 -0.030858636 0.07296747 0.03151049 -0.53670216 -0.23578452 -0.24490744 -0.0070897224
-0.3116063 0.28830612 0.020927189 0.14766109 -0.2743172 -0.06373595 0.21883553 0.11578985
0.07300771 0.12872958 -0.051226668 -0.5731053 0.05647114 0.087921605 0.014061802 -0.2646019
0.05324967 -0.09691962 -0.20662045 -0.30229175 -0.17425753 -0.37148175 -0.08532729 -0.18078938
-0.019553104 -0.021836732 0.12785712 -0.116373256 -0.07916492 0.03275837 0.06774182 -0.041572925
-0.034746073 0.055322684 -0.13840118 -0.108121306 -0.088842824 -0.0061754887 0.056960408 -0.056401376
-0.05467678 0.012437635 -0.12759991 0.012673676 -0.04780152 -0.023786122 -0.024618698 0.004499346
0.4238066 -0.003107524 0.33122438 -0.599626 -0.25034022 -0.10180068 0.051918644 0.19558646
0.007136329 -0.22352885 -0.43401563 0.08475794 0.15930997 0.049102966 -0.0025012183 -0.021453537
-0.35357577 0.07976138 0.22900972 -0.028862389 -0.71071213 -0.09368697 0.36204776 0.028034002
-0.012306848 -0.07399806 -0.13665141 -0.39187393 0.068200186 0.0852026 -0.11171006 0.11326643
0.0871693 -0.29036623 0.0763413 -0.0015266832 -0.047593765 0.018453902 0.2862007 0.03289244
0.07897589 0.31804302 -0.009657999 -0.20422602 -0.009588652 -0.12443775 0.11656153 -0.6734851
-0.068231694 -0.3276254 0.27930188 0.18204221 0.10558468 -0.007200852 -0.08951988 0.080685094
00000000: b712 fdbc 9bb1 15bf 8333 1cbd 67de 13be
00000010: d7b1 b0bc 826e d13d e20d c4be 28da edbe
00000020: 220f f13d 24f8 5bbd 6a37 293e 854e dabd
00000030: 3945 38be f3c2 5a3e 1e7e 60bc 45b5 083d
00000040: 6415 573d d929 04be 52de 47bf f5f6 94be
00000050: f60b e9bc 1a44 913e a1c5 4a3d d78d 453e
00000060: 1ab7 453e b47b 313d f40f 9f3d ed39 773e
00000070: 453e c73d 92ce 213e 1c79 40bd 2d1d 17bd
00000080: f0e9 1abd cf66 4dbe c346 cf3d 5fb6 903e
00000090: 23f1 853d fe64 873d 58a9 7d3e 0385 4abe
000000a0: d39f 0a3d aa8b 2bbf 1a72 9b3d 676e d93e
000000b0: f120 2d3b 549d 87bd 12bf 45be afb5 663b
000000c0: 736a e5bd 0c9f 7b3e 264b 063e 9ad2 b03e
000000d0: c43e a4be 37a4 9c3e 3cc6 723d 0723 35bd
000000e0: f9d8 793d 2fb4 f5ba 90c3 3bbe 2f97 723e
000000f0: aba7 81bc 17fb cebc 84b7 f8bc 5ec7 f1bb
00000100: 57df 923d 61e4 e5bc 2c28 9bbe 7c56 aabd
00000110: 65db 84bc b6b3 debb 6a89 cf3d 5f4e 883e
00000120: a0ff 97bd 878e 0b3e 28b2 1a3e f4f8 8abc
00000130: 94bb cebc 0343 403d fe9b c33b e145 95bc
00000140: bcb4 503e 85ca 08bf 51b4 8c3e 01f4 c33d
00000150: 26a0 a6bd 0800 3dbd 7084 27bc c510 98be
00000160: 45ed a3bc ce46 e1bd fc80 f0be b7ff b1be
00000170: 937e b2be 3e7f 3bbd 5006 ecbd 50ce bd3c
00000180: 29df 0d3f 0150 2ebc 5dff dabe a4f5 50bc
00000190: 2a00 b43c c6eb de3d 892d 0f3e ce81 a0be
000001a0: f30d 72bd a742 33bd 2c95 033d 9e9c b3be
000001b0: 2565 97bd 0d12 e5be 98d4 8abd 2ee2 3e3d
000001c0: 75be 333c e6f6 21bd beab 62bd ab17 8ebc
000001d0: dae0 b73c 2572 8b3d 1b33 0c3e 92cd 86bd
000001e0: 9d32 dc3d bb3d 263d 0e49 a93d 780a 11bf
000001f0: cfd5 133d cc42 25bf ab16 fc3c 70d2 a13d
00000200: d07a 9b3c 0188 d43d 5ffb fc3d a122 c6bd
00000210: 41cb 0d3d 4102 803c f6b9 32bd ebdf 993b
00000220: 0a2b a6bc 9518 e53d 7c01 f93d bc65 d4be
00000230: 9204 c5bb 8f3d 323d b04d 7b3d 00da 0fbe
00000240: a266 18bd 40cb fcbc f86f 953d 2511 013d
00000250: 5065 09bf 7f71 71be 04c9 7abe e750 e8bb
00000260: dc8a 9fbe dc9c 933e 7f6f ab3c 7834 173e
00000270: 4e73 8cbe fe87 82bd 6c16 603e 3b23 ed3d
00000280: 1185 953d b0d1 033e 0ed3 51bd 07b7 12bf
00000290: 484e 673d 3e10 b43d 7963 663c e679 87be
000002a0: 531c 5a3d cb7d c6bd 5094 53be fcc5 9abe
000002b0: 9170 32be db32 bebe 13c0 aebd da20 39be
000002c0: d52d a0bc f2e2 b2bc faec 023e 1a55 eebd
000002d0: 3821 a2bd a42d 063d 39bc 8a3d 5f48 2abd
000002e0: e651 0ebd 0a9a 623d 0ab9 0dbe b46e ddbd
000002f0: 3af3 b5bd c15b cabb 514f 693d 2105 67bd
00000300: c2f4 5fbd 39c7 4b3c 8da9 02be 40a5 4f3c
00000310: 87cb 43bd 1ddb c2bc 27ad c9bc 406f 933b
00000320: 2efd d83e 9aa7 4bbb 3e96 a93e 1781 19bf
00000330: 982c 80be e07c d0bd a5a8 543d d147 483e
00000340: ded7 e93b bfe4 64be 4c37 debe 9295 ad3d
00000350: 2722 233e 3120 493d 7beb 23bb 54bf afbc
00000360: e207 b5be ef59 a33d 8681 6a3e d170 ecbc
00000370: 3bf1 35bf f4de bfbd 535e b93e 90a7 e53c
00000380: a9a2 49bc 4b8c 97bd 59ee 0bbe b3a3 c8be
00000390: 8aac 8b3d b37e ae3d 3ec8 e4bd 3bf8 e73d
000003a0: d185 b23d e2aa 94be d458 9c3d fd1a c8ba
000003b0: aef1 42bd a32c 973c e688 923e 39ba 063d
000003c0: 1dbe a13d 89d6 a23e 953c 1ebc a020 51be
000003d0: b919 1dbc 38d9 febd d0b7 ee3d 8569 2cbf
000003e0: 0fbd 8bbd 84be a7be a800 8f3e 4669 3a3e
000003f0: c83c d83d 20f5 ebbb 3356 b7bd 3a3e a53d

fc2.bias f4 [84]
0.9526472 -0.105009235 -0.13615935 -0.32514626 -0.6924605 -0.5462108 0.26684374 0.60323507
0.78482974 0.834745 -0.16631414 -0.3791728 -0.47281647 0.82475805 0.46481058 -0.42235985
-0.5989117 1.0204749 1.114838 0.50569683 0.19086218 0.066768095 -0.49554652 -0.1385252
0.5116448 0.075287946 -0.12599728 -0.31330273 0.54816914 0.242403 0.07823899 0.19492054
0.8005321 0.5736161 -0.14119881 0.58999485 -0.10945657 1.222174 0.6468041 -0.1802395
0.5742003 0.15542391 -0.21872175 0.4901044 -0.81619406 -0.56981415 -0.20577317 0.43288997
-0.2018036 -0.0837211 0.98685503 0.35817468 -0.078557275 -0.27596483 -0.048059225 0.7298863
0.8734133 0.11312977 -0.041536294 -0.17670774 -0.5341733 -0.1637739 0.024682028 0.5644772
0.5746587 -0.8164745 0.67492795 -0.6026099 0.403938 0.41900045 0.7196066 -0.39958248
0.095004946 -0.016666224 -0.103793055 0.019244159 -0.2668126 -0.2432774 -0.09292446 0.84046584
-0.3659609 -0.35862753 0.4822805 1.0740491
00000000: b0e0 733f 150f d7bd 5b6d 0bbe 9279 a6be
00000010: 1745 31bf 79d4 0bbf be9f 883e 9d6d 1a3f
00000020: 9aea 483f d9b1 553f 414e 2abe f022 c2be
00000030: 0015 f2be 5823 533f a7fb ed3e 8d3f d8be
00000040: 4752 19bf ec9e 823f 03b3 8e3f 5975 013f
00000050: 6071 433e b6bd 883d 46b8 fdbe 8dd9 0dbe
00000060: 27fb 023f 9130 9a3d 6e05 01be 3769 a0be
00000070: d054 0c3f 7e38 783e c33b a03d 4099 473e
00000080: acef 4c3f 81d8 123f 6c96 10be e709 173f
00000090: c42a e0bd 3370 9c3f f494 253f b490 38be
000000a0: cafe 123f 7227 1f3e 98f8 5fbe f7ee fa3e
000000b0: 18f2 50bf 57df 11bf 34b6 52be c1a3 dd3e
000000c0: 9aa5 4ebe f875 abbd 88a2 7c3f ac62 b73e
000000d0: a3e2 a0bd 434b 8dbe c0d9 44bd d4d9 3a3f
000000e0: 0498 5f3f 95b0 e73d f621 2abd e0f2 34be
000000f0: 95bf 08bf 58b4 27be f731 ca3c 9481 103f
00000100: d51c 133f 7904 51bf 14c8 2c3f a444 1abf
00000110: f6d0 ce3e 3a87 d63e 2338 383f 1396 ccbe
00000120: f491 c23d 9b87 88bc 7491 d4bd eda5 9d3c
00000130: a99b 88be b61d 79be 2e4f bebd c528 573f
00000140: 3a5f bbbe 079e b7be 78ed f63e 717a 893f

fc3.weight f4 [10, 84]
0.017310632 0.077979945 -0.068462685 -0.2192301 -0.0011334574 -0.23638707 -0.38330695 -0.22607031
-0.08642801 -0.33358645 0.124425195 0.12427642 0.24738935 0.11145888 -0.23818009 -0.3707603
0.12661314 -0.26992616 0.09677231 -0.4313052 -0.04581082 -0.04967492 -0.017381854 0.091927305
0.044861678 -0.10806281 0.066944174 -0.026356032 0.030347988 -0.25652757 0.10031407 -0.12993102
0.024368402 0.023724953 -0.09792193 -0.067815684 -0.07527919 -0.044370387 0.05851872 -0.14001824
-0.27571747 0.018591953 0.056791253 0.029674489 0.08080989 -0.09891185 0.08630463 0.18072169
0.025291877 -0.20987006 -0.22460803 -0.027010305 -0.0993293 0.2615118 0.0729833 -0.24882376
0.10823653 0.20849973 0.009450161 0.08147227 0.16522984 -0.24094939 -0.009477733 -0.13210914
-0.2465811 0.0821406 -0.0972617 0.13388054 -0.08364363 -0.2361049 -0.09624902 -0.23004225
0.07643841 0.2831759 -0.38420272 0.048824947 0.12839063 0.10386824 -0.11481609 -0.3799893
0.15065065 0.07609299 0.088045955 -0.2532743 -0.32186472 0.13551193 -0.8761921 -0.09508941
0.117843755 0.22481953 -0.08715657 -0.48761132 -0.35431367 -0.16815184 -0.14779235 0.13235864
-0.2898181 0.06643763 -0.22053619 -0.25975648 -0.0053740256 -0.16458529 -0.2819552 0.117468745
-0.058729213 0.07834064 0.016785497 0.06363133 -0.20503807 -0.11517943 0.25546208 0.1335756
-0.05886736 -0.40942606 -0.14256689 0.06663847 -0.5497475 0.079596154 -0.030446528 0.02816527
0.050914776 -0.38109007 -0.28724384 0.0350321 0.09086121 0.112456456 0.16683434 0.0579578
0.13991798 0.16776966 0.22016214 -0.14190024 -0.24388343 -0.17969386 -0.57993686 -0.111267015
-0.09631805 0.1924002 0.0579431 0.15751433 -0.14492193 0.040631123 -0.3716318 -0.21627763
0.13530892 0.10775621 0.06264444 0.08366825 -0.1592381 0.052434403 -0.43418166 -0.5069111
0.13515551 -0.20884743 0.052022777 0.048082635 0.041444406 -0.18120079 0.025501603 0.15590887
0.027217908 -0.117995635 0.17168348 -0.21227135 -0.27499804 0.105648436 -0.20268217 -0.17213373
-0.20821589 0.020304734 0.26314697 0.27663463 0.16657007 -0.15055478 -0.20400527 0.12072484
0.076939695 -0.07911753 0.13220167 0.07270787 -0.11774979 -0.09939473 -0.09513679 -0.15713404
0.07697882 0.114839956 -0.071420416 -0.13709326 0.13768469 -0.33370963 0.18109228 0.01983219
0.039790075 0.106470294 -0.18194999 -0.077251256 0.12505126 -0.048904635 -0.2208462 -0.24167897
0.089648776 0.24273962 -0.027688935 -0.22567576 -0.08281208 0.14083028 -0.24314688 -0.075298764
0.16636087 -0.2455702 0.15128879 -0.1557897 0.0802683 0.15437779 -0.083429135 -0.26438853
0.06051235 0.04425944 -0.067985915 -0.07341989 0.023166215 0.120022126 -0.20544448 0.018033627
-0.041061155 -0.31613022 0.09955807 0.16754587 0.031359963 0.2455642 -0.20282078 0.06374377
-0.12852181 -0.11555936 -0.087125584 0.07585733 -0.11849114 0.028798977 -0.018747836 0.14297485
-0.12950633 -0.3177558 -0.34185082 -0.049539432 -0.09685777 0.091642305 -0.21721193 0.07018938
-0.19336095 -0.15626441 -0.08948246 -0.023766842 0.12398836 -0.14208254 -0.5324643 -0.27493343
00000000: 07cf 8d3c f3b3 9f3d 2a36 8cbd db7d 60be
00000010: 8590 94ba 740f 72be cf40 c4be fa7e 67be
00000020: 2b01 b1bd d8cb aabe a3d2 fe3d a384 fe3d
00000030: a253 7d3e 8e44 e43d 7be5 73be 4bd4 bdbe
00000040: e0a6 013e c333 8abe 9030 c63d 09d4 dcbe
00000050: 20a4 3bbd ee77 4bbd 6464 8ebc 6244 bc3d
00000060: e1c0 373d 0950 ddbd 071a 893d 9be8 d7bc
00000070: 589c f83c 9557 83be 7771 cd3d a30c 05be
00000080: 3ea0 c73c d55a c23c 4b8b c8bd f3e2 8abd
00000090: fa2b 9abd b9bd 35bd 53b1 6f3d f160 0fbe
000000a0: d72a 8dbe 274e 983c f29d 683d ea17 f33c
000000b0: a87f a53d 4c92 cabd 7bc0 b03d 1b0f 393e
000000c0: e930 cf3c 2de8 56be a6ff 65be b744 ddbc
000000d0: 296d cbbd e0e4 853e 4578 953d a8cb 7ebe
000000e0: 1dab dd3d f480 553e d9d4 1a3c efda a63d
000000f0: 0332 293e 70bb 76be 7e48 1bbc 9e47 07be
00000100: c27f 7cbe 5539 a83d 2431 c7bd fb17 093e
00000110: 5a4d abbd 7cc5 71be 351e c5bd 3290 6bbe
00000120: be8b 9c3d 6efc 903e 38b6 c4be abfc 473d
00000130: d578 033e dfb8 d43d b324 ebbd f58d c2be
00000140: 2a44 1a3e a4d6 9b3d 7051 b43d 2bad 81be
00000150: 74cb a4be a4c3 0a3e 204e 60bf 3dbe c2bd
00000160: 1158 f13d 1737 663e 257f b2bd 31a8 f9be
00000170: 9a68 b5be ff2f 2cbe e156 17be 0689 073e
00000180: 0a63 94be 7410 883d 3dd4 61be cdfe 84be
00000190: 9818 b0bb 0c89 28be 6f5c 90be 7493 f03d
000001a0: 0b8e 70bd 0f71 a03d bd81 893c 2551 823d
000001b0: 80f5 51be 31e3 ebbd edcb 823e 0bc8 083e
000001c0: e71e 71bd 4ba0 d1be 0efd 11be c079 883d
000001d0: 41bc 0cbf 4f03 a33d ff6a f9bc daba e63c
000001e0: 038c 503d 3d1e c3be a011 93be d27d 0f3d
000001f0: 7115 ba3d 924f e63d 9fd6 2a3e 2865 6d3d
00000200: a946 0f3e cfcb 2b3e 2f72 613e 4c4e 11be
00000210: 94bc 79be ab01 38be be76 14bf f6df e3bd
00000220: 6642 c5bd 8f04 453e be55 6d3d 704b 213e
00000230: 6a66 14be d26c 263d 8646 bebe e277 5dbe
00000240: 6c8e 0a3e 4aaf dc3d ba4b 803d 425a ab3d
00000250: 500f 23be 75c5 563d 0f4d debe edc4 01bf
00000260: 3566 0a3e 1adc 55be d615 553d 4cf2 443d
00000270: 9cc1 293d b38c 39be bde8 d03c 93a6 1f3e
00000280: 17f8 de3c b2a7 f1bd cbcd 2f3e a95d 59be
00000290: 8bcc 8cbe 355e d83d ea8b 4fbe d343 30be
000002a0: 8c36 55be 1d56 a63c 33bb 863e 0ea3 8d3e
000002b0: 5891 2a3e 082b 1abe c2e6 50be 963e f73d
000002c0: 8f92 9d3d 5f08 a2bd e05f 073e dde7 943d
000002d0: cd26 f1bd 778f cbbd 14d7 c2bd bfe7 20be
000002e0: 12a7 9d3d 3631 eb3d de44 92bd 2d62 0cbe
000002f0: 37fd 0c3e fddb aabe 4170 393e 1e77 a23c
00000300: ebfa 223d 190d da3d 1951 3abe e835 9ebd
00000310: 700d 003e 3a50 48bd 8225 62be b17a 77be
00000320: c799 b73d bc90 783e e8d3 e2bc 8c17 67be
00000330: 6199 a9bd d035 103e 7ffb 78be 3d36 9abd
00000340: 815a 2a3e c176 7bbe 73eb 1a3e 5687 1fbe
00000350: b563 a43d 3615 1e3e e5dc aabd ef5d 87be
00000360: ccdb 773d 6349 353d 333c 8bbd 2b5d 96bd
00000370: 13c7 bd3c 29ce f53d 0a60 52be 42bb 933c
00000380: be2f 28bd d2db a1be 1ae5 cb3d 2591 2b3e
00000390: 4e73 003d 2f75 7b3e 40b0 4fbe 188c 823d
000003a0: 399b 03be 63aa ecbd e66e b2bd 165b 9b3d
000003b0: 7cab f2bd d5eb eb3c 1095 99bc 0068 123e
000003c0: 4f9d 04be e3b0 a2be 1207 afbe dce9 4abd
000003d0: 5e5d c6bd f6ae bb3d ce6c 5ebe 73bf 8f3d
000003e0: 6a00 46be c703 20be 9442 b7bd aeb2 c2bc
000003f0: 9ced fd3d 167e 11be 954f 08bf 13c4 8cbe

fc3.bias f4 [10]
-0.3793602 -0.9179456 -0.40410796 0.52206296 0.91046023 -0.22527635 0.14294451 -0.13625693
0.07051261 0.14172211
00000000: 803b c2be 7cfe 6abf 3de7 cebe eba5 053f
00000010: ec13 693f d8ae 66be 0c60 123e f086 0bbe
00000020: ea68 903d 9a1f 113e
