ClassicalNetwork/Classification/0_Letnet/workspace/Lenet_20240313.pth (torch, 487623 bytes, 10 tensors)

conv1.weight f4 [16, 3, 5, 5]
000000 25 d0 1f ba ad 9e 8b be eb 77 4f be ac 7b b6 3e
       -0.00060963846 -0.27269498 -0.20260589 0.3564123
000010 77 79 79 3d 47 0e db 3e ea 3d 19 be 64 85 26 bf
       0.060906854 0.4278433 -0.14965025 -0.6504729
000020 10 df b0 3d ef ac df 3d fe 85 6a be 70 6c 1f 3f
       0.08636296 0.10921656 -0.22902676 0.6227484
000030 f2 39 bb 3d 8e cd d5 be cf dd 4b be c5 80 81 be
       0.091419116 -0.41758388 -0.19908832 -0.25293556
000040 0f 2e ca 3d 97 da fa 3e 40 44 fe bd b0 21 74 bd
       0.09872066 0.48994896 -0.124153614 -0.05960244
000050 ee a2 82 3e ba 55 bc be c0 95 0a be 18 08 21 3e
       0.2551493 -0.36784154 -0.13533688 0.15725744
000060 5b 0f 65 3e 72 50 16 bd ef 21 d3 bd 44 98 19 be
       0.22369139 -0.036697812 -0.10309207 -0.14999491
000070 c3 c1 ad 3e 2a bf de bd 8c 2d 84 3e 0c 62 62 3c
       0.3393689 -0.108763054 0.25816 0.0138173215
000080 ec a9 f0 be fd b9 ac 3d 59 e8 2e 3d c4 1d 72 be
       -0.4700464 0.08433912 0.042702053 -0.23644167
000090 69 92 15 3f 5c ec 69 3e e3 84 b5 be ae 78 eb bd
       0.5842653 0.2284407 -0.35452947 -0.11497627
0000a0 c4 17 8b be 89 3d 5a bc 85 f5 1f 3f 83 ea d5 bc
       -0.2716657 -0.013320335 0.6248401 -0.0261128
0000b0 ff bc 2b be d4 1b 76 3e 81 c0 cc be 42 33 f1 bc
       -0.16771315 0.24034053 -0.3999062 -0.029443387
0000c0 38 53 af 3d 00 33 0f 3e 9c 28 54 bd b8 d6 f2 bd
       0.085607946 0.13984299 -0.05179654 -0.118573606
0000d0 90 68 35 be 77 23 e4 3d ca 76 09 3d 04 fc 69 3e
       -0.17715669 0.11139577 0.03356055 0.22850043
0000e0 ec ed fd bc c8 c1 f1 be 1d b4 e7 3d 99 1a d7 3c
       -0.030997239 -0.47218156 0.11313651 0.0262578
0000f0 ec 90 26 be b8 70 e1 3e 2e b6 d2 3d d1 09 af be
       -0.16266221 0.4403131 0.10288654 -0.34187177
000100 b1 51 97 bd 92 15 98 be 15 25 99 bb ba 5c c3 3e
       -0.07388628 -0.29703957 -0.00467361 0.38156682
000110 01 6a 24 bd 6c 75 4f bd d4 4f 4b 3e 67 76 93 be
       -0.040140156 -0.05064909 0.19854671 -0.2880127
000120 ac 08 2c bb ca be 8e 3d 00 46 2e 3e d9 ff 10 3e
       -0.0026250286 0.06969984 0.1701889 0.14160098
000130 b0 af 15 bd 1b 78 45 3c 8d 01 1d be 7d 0d 64 3e
       -0.0365445 0.012052561 -0.15332623 0.2227077
000140 f8 70 63 3e dc 95 2f bd fc 32 45 be 8b fe 22 bd
       0.22211063 -0.042867526 -0.1925773 -0.039793532
000150 66 9e 86 3c 99 e8 13 3e 69 d9 b9 3c d3 d6 35 bd
       0.016432952 0.14444198 0.022686677 -0.044394325
000160 d5 6f 42 be 56 40 37 be 3c 4f ff 3c ce 8d 13 be
       -0.18987973 -0.17895636 0.031165712 -0.14409563
000170 33 99 a7 be 82 7d 2a be 8f 3c 8b be 25 06 bd 3e
       -0.3273407 -0.1664944 -0.2719464 0.3691875
000180 75 96 5a bd dc df a1 be 18 26 11 be 2b 5a d5 bd
       -0.053366143 -0.31616104 -0.14174688 -0.10417589
000190 a0 43 84 be cd 52 47 bd 15 9f 80 be 05 ae ba be
       -0.25832844 -0.04866295 -0.2512137 -0.3646089
0001a0 47 65 2c bd 57 8d bd bd 0c 04 57 bd b8 30 80 bd
       -0.042088773 -0.09255474 -0.052494094 -0.06259292
0001b0 74 7f 1c be c4 06 a9 3d e3 c6 84 3d 44 4d 0a be
       -0.15282995 0.082532436 0.06483247 -0.13506037
0001c0 62 e3 ee bd 8c d0 8f bd e2 16 ac bd 47 d2 44 be
       -0.116644636 -0.07022199 -0.08402802 -0.1922084
0001d0 ba d2 8d be 8f c7 82 be 2a 76 16 3e d9 47 2f 3d
       -0.27699834 -0.25542876 0.14693514 0.04279313
0001e0 65 f2 f3 3d 92 38 9e be 8c 8b 34 be 37 13 68 3e
       0.119114675 -0.30902535 -0.17631358 0.2266358
0001f0 63 33 e3 3d f4 5d 84 bd 57 9f 3b 3e 04 15 a1 bd
       0.110937856 -0.06463233 0.18322502 -0.078653365
000200 01 5e 65 be bd d3 49 be d0 ab ea 3d 51 c5 5f 3e
       -0.22399141 -0.19709678 0.11458552 0.21852614
000210 4d ee 82 3e 2d 06 d3 3d 19 94 eb bc 40 9d 05 bd
       0.25572434 0.10303912 -0.028757142 -0.03262067
000220 9e 6f 04 3e 89 4f 18 3e 50 82 5e 3e e3 c2 46 3e
       0.12933204 0.1487409 0.21729398 0.19410281
000230 1a 4c 99 bd 50 f4 bf bd a7 73 d0 3d cf bb 93 3e
       -0.07485218 -0.09372771 0.10178309 0.28854224
000240 23 e6 ab 3d 51 27 10 be 82 d3 61 be 3d 2b f8 3d
       0.083935045 -0.14077498 -0.2205334 0.12117622
000250 3e 52 63 3e c4 57 4e 3d 3d 69 66 3d c6 c4 7a 3e
       0.22199342 0.05037667 0.056252707 0.24489126
000260 da 88 1e 3d 67 44 c7 bd c8 e2 fa 3c 1d 08 e3 3e
       0.03870473 -0.097298436 0.030625716 0.44342127
000270 b5 86 27 3f 52 12 a6 3e 01 e4 19 3e f7 2a 39 3e
       0.6543992 0.32435852 0.15028383 0.18082796
000280 8b ac c5 3e 2c e3 02 3f 1e 0a 83 3e 62 99 21 be
       0.38608202 0.51127887 0.25593656 -0.15781167
000290 da a5 bb bd c3 49 4a bc 11 72 2a 3e a1 ed 87 3d
       -0.09162493 -0.012346688 0.16645075 0.06637121
0002a0 7d 14 97 be c3 2d 83 be 75 9b 22 3d b7 12 d4 bd
       -0.2950782 -0.2562085 0.039699037 -0.10355132
0002b0 e7 78 a7 be ad 9f 11 bf 25 d8 e7 be b9 a8 32 be
       -0.3270943 -0.5688427 -0.45282093 -0.17447175
0002c0 7a 29 3c be 6c 68 1e be 5e c5 03 bc 3f f6 d8 3d
       -0.18375197 -0.15469521 -0.0080426615 0.10593843
0002d0 75 ec 4e be a1 b3 8d be 48 e4 76 be a3 33 0c be
       -0.20207389 -0.27676108 -0.2411052 -0.13691573
0002e0 4b 15 30 be e3 88 49 bd 4c ca be be 01 0e 33 be
       -0.17195623 -0.04920281 -0.37263715 -0.17485811
0002f0 73 4c 0f be 65 3c 3a be 30 8a 02 be 4c df 22 be
       -0.13994007 -0.18187101 -0.12748027 -0.15905493
000300 3c 78 28 3d aa 71 57 3d 6d fe c0 bc c2 2b 7a bc
       0.04113029 0.052598633 -0.02355882 -0.015269222
000310 b1 22 0d 3e 7e 4e 9b 3e 6b 52 7b 3d 62 f6 e5 3d
       0.13782765 0.30333322 0.061357897 0.112286344
000320 82 07 db bd f4 09 46 be e7 f3 bd bb c0 9c fe 3d
       -0.106947914 -0.19339734 -0.0057968977 0.124322414
000330 2e 62 87 3d 6e b9 24 be 2d 48 e9 be 9f 07 53 be
       0.06610523 -0.16086361 -0.45562878 -0.20608376
000340 15 b5 94 bc 5f b5 08 3c f4 0a 32 be c5 8f 0a bf
       -0.018152753 0.0083440235 -0.17386991 -0.54125625
000350 dd 49 a5 be a1 6c 08 3e 34 0e 61 3e 2a ad 4c be
       -0.32282916 0.13322689 0.21978074 -0.19987932
000360 ab 9b 26 be 4c 44 99 3d 51 ee af 3e ce 70 ec 3e
       -0.1627032 0.0748373 0.34361508 0.46179813
000370 fe 12 ff 3d 08 ef 41 3e 19 69 f4 3e b7 a4 84 3e
       0.12454794 0.1893884 0.47736433 0.25906917
000380 c6 99 d8 3e a7 7d 7f be 90 5b 01 3e d3 a9 91 3e
       0.4230482 -0.24950276 0.12632585 0.28449878
000390 94 ff a5 bd 80 6c 27 bd a0 02 9f be 10 5a f9 3e
       -0.08105388 -0.040874958 -0.3105669 0.48701525
0003a0 69 fe 85 3e 44 29 21 bf cd 53 e8 3d a2 1d 12 bc
       0.26170662 -0.6295359 0.11344109 -0.008918198
0003b0 48 84 e1 3e 11 5b ef bd d4 09 17 bf 4f 30 93 3e
       0.44046235 -0.116872914 -0.5899937 0.28747794
0003c0 f7 2b 92 3d 1a d5 95 3e be 34 c4 be 9a f2 a0 be
       0.07137292 0.29264146 -0.3832149 -0.3143509
0003d0 fb 15 bb 3e d2 72 c7 3c 5e 12 ef 3d 17 78 8c be
       0.36540207 0.024346743 0.11673425 -0.2743537
0003e0 ac 66 40 bd 07 02 62 3e 12 ad 3f be cb 0e 3e 3e
       -0.046972916 0.22071086 -0.18718365 0.1856033
0003f0 d5 c0 64 3e 14 05 55 be 1d 7e d9 3b e4 58 6e be
       0.22339185 -0.20802718 0.0066373483 -0.23276097

conv1.bias f4 [16]
000000 17 2f 15 be 75 47 13 bf 26 78 e6 be 68 f1 4b be
       -0.14568745 -0.5753091 -0.4501354 -0.19916308
000010 1f 0e e8 be 51 27 4e 3e 75 4f 0e bf de 75 b5 be
       -0.45323274 0.20132186 -0.5558999 -0.35441488
000020 4d 71 9f be b2 3e 58 be 7d f9 66 bd 91 82 25 bf
       -0.3114113 -0.21117666 -0.056390274 -0.64652354
000030 91 c9 5a be 87 d6 00 bf 57 86 be be 3c c3 88 be
       -0.21365954 -0.5032734 -0.37211868 -0.26711452

conv2.weight f4 [32, 16, 5, 5]
000000 96 c6 ae be 3d e1 e6 be 0f d4 ba be 78 f3 f7 be
       -0.34135884 -0.45093718 -0.36489913 -0.4842794
000010 26 a2 d1 bd 49 f5 bf bd ce ad a6 be a8 b7 fd be
       -0.102360055 -0.09372956 -0.32554477 -0.4955418
000020 7f 4d 48 bf 70 bd 3d be c5 27 8b bc 55 6e df bd
       -0.7824325 -0.18529296 -0.016986737 -0.10909716
000030 8b 22 26 3d f0 09 23 be 97 76 64 be 85 c4 92 bd
       0.040560286 -0.1592176 -0.22310863 -0.071663894
000040 4a f5 91 bc e1 98 15 be 2c 27 5a 3e 0a b6 05 3e
       -0.017817158 -0.146091 0.21304005 0.13057724
000050 31 61 b9 be 9c 44 ff be 40 61 bd be 1e 8e 32 3e
       -0.36206964 -0.49857032 -0.36988258 0.17437026
000060 ca 7a aa 3e 27 94 65 bd d4 87 0c bf b4 dd 69 bf
       0.33296806 -0.056049492 -0.5489476 -0.9135392
000070 9f 33 89 be d3 45 84 3e 77 33 49 3c f1 42 11 bf
       -0.26797196 0.25834522 0.012280337 -0.5674277
000080 10 70 ca be 20 c3 0e bf 0e 1f 2f 3e e7 cd 16 3d
       -0.39538622 -0.5576649 0.1710169 0.036817458
000090 62 fa 6f be 93 97 c5 3b 75 13 cd 3d fb c8 85 3e
       -0.23435357 0.006030032 0.10013477 0.26129898
0000a0 bc 12 12 3e 0a 2c 98 bb 27 6d cf bd f5 ff 66 3e
       0.14264959 -0.0046439217 -0.10128241 0.22558577
0000b0 47 1c f7 3e a1 39 0f 3e 31 4a 6b be d9 8f c0 bd
       0.4826376 0.13986827 -0.2297752 -0.09402437
0000c0 d1 73 db bc b8 47 0f 3e 42 c9 15 bc 33 ed 02 3d
       -0.026788624 0.13992202 -0.009142222 0.031964492
0000d0 e6 f7 fd bd 53 bd 29 be df 2a 10 3e eb ae 63 3e
       -0.124007985 -0.16576128 0.14078854 0.22234695
0000e0 96 68 02 3d a2 2b 18 bf 2f 53 2a bf 25 76 61 be
       0.031838022 -0.5944158 -0.6653318 -0.22017725
0000f0 14 c6 65 be 23 73 4b 3b 01 b7 bd be 55 26 6c be
       -0.22438842 0.0031043969 -0.37053683 -0.23061498
000100 d0 5e d8 3d d7 8b 2f be d6 cd 66 bd 64 ee 79 3e
       0.10564959 -0.17143188 -0.056348644 0.24407345
000110 22 04 0a 3e 4e 79 2c bd 76 ae 4e 3e 7d d1 e0 bd
       0.13478139 -0.042107873 0.20183739 -0.10977457
000120 de 1c 07 bc 06 a0 5c be 8d ae 65 be df d9 22 be
       -0.008246629 -0.21545419 -0.22429867 -0.15903424
000130 1c e6 d6 3d ff 40 a1 be df 5b a4 3c e4 11 32 be
       0.10493109 -0.314949 0.020063339 -0.17389637
000140 7e 22 3d bf fb 49 cf 3e 57 a3 87 3d 76 af 02 be
       -0.73880756 0.4048613 0.066229515 -0.12762246
000150 05 be 18 be e9 28 0d bf d6 57 e1 3d b1 a4 80 bb
       -0.14916237 -0.5514055 0.110030815 -0.0039258827
000160 9d 55 81 3d 7d 56 a1 3e d5 ab e4 3c bb 4b 4b bd
       0.063151576 0.31511298 0.027913967 -0.04963277
000170 f4 c5 fd 3d 78 fa 37 bd de c3 45 3e d5 f9 8f bd
       0.12391272 -0.0449166 0.19312999 -0.070300736
000180 59 70 12 3d 4a 17 72 3d 02 f0 21 3e 7b 00 15 bb
       0.035751674 0.05910424 0.15814212 -0.0022735882
000190 75 a0 b3 3d 0e ab a1 3e 50 67 2c 3e 35 28 ee bd
       0.08770839 0.31575817 0.16836286 -0.11628763
0001a0 e9 a3 06 be f4 f1 3f 3e 73 8a 4b bd 8c cf 00 3c
       -0.13148464 0.18744642 -0.049692582 0.007861983
0001b0 fb 7a d3 bc 34 e2 21 be d4 8b 46 3e 61 46 87 3d
       -0.025815478 -0.15808946 0.19389278 0.066052206
0001c0 c6 5a ba be c0 67 25 3e 76 59 2a 3d fc f5 09 bd
       -0.3639738 0.16152859 0.041589223 -0.033681855
0001d0 5e 22 89 be 1e 5e 59 be e7 ec 9e 3d f9 17 d2 3b
       -0.26784033 -0.21227309 0.07760029 0.006411549
0001e0 ad fe bc 3e 14 74 47 be c9 4e e5 be bf 7f 8a bd
       0.36913052 -0.19477874 -0.4478667 -0.06762647
0001f0 f8 90 a1 bd cd 74 94 3e d8 6d 1d be f0 1d aa be
       -0.07888979 0.28995362 -0.15373933 -0.33225965
000200 31 b7 70 bd 4e 1b a6 3e 04 5c df 3c c0 79 de be
       -0.058768455 0.32442707 0.027265556 -0.43452263
000210 58 4b 90 be ca cd 94 bd 16 8c 72 3e 01 e8 04 3e
       -0.28182483 -0.07265814 0.23686251 0.12979127
000220 b6 e6 a2 be 10 61 b4 be d2 da 54 be bf f3 fe 3d
       -0.31816643 -0.35230303 -0.20786598 0.12448835
000230 cd 45 bf 3e 5a 56 ab be f2 8a 93 be 68 a9 61 bd
       0.3735794 -0.3346432 -0.28816944 -0.0550932
000240 02 01 c8 3e 27 6e d2 3e 11 45 36 be 8a 77 32 be
       0.3906327 0.41099665 -0.17799784 -0.17428413
000250 de af b1 3d c7 92 1b 3e 85 e9 98 3e 60 88 cc 3d
       0.08676122 0.1519271 0.2986566 0.09986949
000260 5c 93 1c be 78 43 a9 bb 73 e9 42 3e 32 96 34 3e
       -0.15290588 -0.0051655136 0.19034366 0.1763542
000270 25 9c 9c bd 03 8a bb bd 1a 5f 09 be 90 a4 85 3e
       -0.0764697 -0.09157183 -0.13415185 0.26102114
000280 8e 9b 75 3e 64 55 c5 bd 1c b6 75 bd e5 be 8f be
       0.2398512 -0.096354276 -0.059988126 -0.28075328
000290 46 3d f0 bd e1 ab a7 3e 1e 5d 35 be 3b 8d 64 be
       -0.11730437 0.3274832 -0.17711303 -0.223195
0002a0 44 47 99 bd c7 17 0f be 5b f6 ee 3d 47 b8 e0 be
       -0.07484296 -0.13973914 0.11668082 -0.43890592
0002b0 4a eb 86 be 04 e0 1a bb 22 7a a1 3e 48 e9 9d be
       -0.26351386 -0.002363206 0.31538492 -0.30842042
0002c0 28 49 89 3e c0 9c c4 3e 01 62 a5 3d 47 c9 4d 3d
       0.26813626 0.3840084 0.080753334 0.05024078
0002d0 ac d6 a8 3d 34 e0 d1 3e 03 2a 21 3e 97 4e 88 3e
       0.082440704 0.40991366 0.15738682 0.2662246
0002e0 68 2e 1d 3e 98 20 35 be 00 45 ce be 77 3d 44 be
       0.15349734 -0.17688215 -0.40287018 -0.19164072
0002f0 ac 03 45 bd 24 7d 56 3e 6e a7 27 bf 57 4c 40 bf
       -0.048099205 0.20946175 -0.6548985 -0.75116485
000300 a8 bf 33 bf 68 df 42 bf 43 64 05 bf 97 f7 ae be
       -0.7021432 -0.7612214 -0.5210611 -0.3417327
000310 3e 09 5f bf 42 39 c4 be c8 5e a0 bd 76 05 74 be
       -0.8712348 -0.38324934 -0.07830578 -0.23830208
000320 68 58 c0 be 93 81 0d 3e 1e a0 70 3e 63 8e 68 3e
       -0.3756745 0.1381896 0.2349858 0.22710566
000330 a2 82 5f 3d 61 e9 dd be a5 13 50 be 6b ea c5 3d
       0.05456794 -0.43342116 -0.20319994 0.09663852
000340 bc 56 48 3e 0e 94 20 be ac 15 40 be b3 5b fb bc
       0.19564337 -0.15681478 -0.18758267 -0.030683374
000350 e9 d7 1f bc cd b4 1c bd ca a6 0d be 7c f4 43 be
       -0.009756067 -0.038258363 -0.13833156 -0.19136232
000360 ed 44 67 3e dd bd 7f 3e 5d 1a b8 bd cc 96 ac 3e
       0.22584887 0.24974771 -0.089894034 0.337088
000370 1b 96 7f be 64 d0 9f 3e 3b 04 8e 3e ca dc b4 bd
       -0.24959604 0.31213677 0.27737603 -0.08831175
000380 54 3e c9 3e 4a 26 40 be 0a 73 5c 3e ce 46 d6 3e
       0.39305365 -0.18764606 0.21528259 0.41850895
000390 3f a4 52 3e 57 b3 7e 3e 37 47 b7 3d c3 1d c0 3c
       0.20570467 0.248731 0.0894913 0.023451691
0003a0 4f da a8 be 41 89 92 3d 5b c3 c6 bb 1e 3e 16 bd
       -0.32979056 0.07155085 -0.0060657687 -0.036680333
0003b0 fd 3d c1 be 7d 90 f6 be 8c 51 84 bd 04 fe bc 3e
       -0.37742606 -0.4815711 -0.06460866 0.3691255
0003c0 e5 bc 77 be d9 05 e8 be 54 76 b5 be d4 ee a3 bd
       -0.24193151 -0.4531696 -0.3544184 -0.08004537
0003d0 6f f2 ab 3e 82 d5 a9 3c b2 38 90 be 75 1a a4 be
       0.335834 0.020731691 -0.28168255 -0.32051435
0003e0 d3 e9 f0 bc 9c dc a9 3e 71 ba 4d 3e ee 8e 1e 3c
       -0.029408371 0.33176124 0.20090653 0.009677632
0003f0 16 b7 f7 3d b1 da 00 3e a6 76 b5 bc 82 17 1b 3e
       0.12095468 0.12583424 -0.022151303 0.15145686

conv2.bias f4 [32]
000000 f2 eb 73 3e cb 18 d0 be eb 98 b1 be 7e 73 26 bf
       0.23820475 -0.40643916 -0.3468698 -0.6501998
000010 88 77 f0 3e b7 20 42 bf 93 f4 de 3e a8 58 19 3f
       0.46966195 -0.7583117 0.4354597 0.59900904
000020 8d 15 99 be 2c 16 b8 bd 2e 9d 2d 3f d5 66 28 bf
       -0.29899254 -0.08988604 0.6781796 -0.6578191
000030 96 d6 7b 3e 64 af 99 bd e8 b5 20 be 49 9c 85 bb
       0.24593577 -0.07504156 -0.15694392 -0.0040774685
000040 7f f4 51 bf 3a c2 3c 3f 6e 5d 08 bd 22 c4 3c be
       -0.82013696 0.73733866 -0.033292226 -0.18434194
000050 fc 72 a3 3f e3 55 32 be 6b 5c b3 3e 85 bf 84 3f
       1.2769465 -0.17415576 0.35031447 1.0370947
000060 2c bf d6 3e be a0 36 bf cc 94 5b 3f 79 b6 b7 3e
       0.41942728 -0.71339023 0.8577392 0.35881403
000070 74 99 02 bf ee 32 51 bf b9 c1 9f be a6 e7 fc 3d
       -0.510154 -0.8171834 -0.31202486 0.12348871

fc1.weight f4 [120, 800]
000000 43 29 fc bc cf 48 20 bd 0a dd 5c bc 9e 2f f0 bc
       -0.030781394 -0.039131936 -0.013480434 -0.02931958
000010 83 63 31 bc b0 14 a5 bb 47 fc 44 bc 55 08 6d bd
       -0.010826948 -0.0050378665 -0.012023038 -0.057869274
000020 8d 09 89 3c 2d fe 11 3c ea 26 d6 3c c1 10 26 3c
       0.016728187 0.008910698 0.026141603 0.01013583
000030 c7 d9 52 bc ad 5e 52 bc 14 4d af 3b 39 07 1e bd
       -0.012869305 -0.012839955 0.0053497646 -0.038581107
000040 8d ed e2 bc 2d fe aa 3c 3e 65 fb bc e2 73 c8 bc
       -0.027701164 0.020873154 -0.030687924 -0.02446932
000050 fa d5 71 bc d0 71 84 3c 37 51 0e bd 6e b0 df bc
       -0.014760489 0.016167551 -0.03474542 -0.027305808
000060 34 72 8d bc 34 35 15 bc a0 5b 04 bc fe 90 7f bc
       -0.01726637 -0.009106923 -0.008078486 -0.015598534
000070 dd 5c 7d 3c 4c 3b 19 bd 2b 08 1c bd 4e b8 ee bc
       0.015464035 -0.037410066 -0.038093727 -0.029140618
000080 f7 10 0f bd 48 bc 6f 3c ca d4 e7 bc d0 06 37 bc
       -0.03492829 0.014632292 -0.028299708 -0.011171058
000090 86 7f c4 3c 5f 2d 13 bc ca ff ad bc 13 7e f9 bc
       0.02398659 -0.008982985 -0.021240134 -0.030455625
0000a0 c3 e6 15 bd b1 51 1c bd 6a 6d d7 bc 38 36 24 bc
       -0.036597025 -0.038163844 -0.02629729 -0.010022692
0000b0 f9 ec 07 3c b2 d7 a6 bc df e0 be bc 77 78 25 bd
       0.008296245 -0.020366523 -0.023300586 -0.040398087
0000c0 80 39 47 3c 72 51 af 3c e3 9c 17 3c 5f 18 cc ba
       0.012159705 0.02140114 0.009253713 -0.0015571228
0000d0 50 02 11 3c 20 dc 32 bc 65 85 0a 3b 15 e9 a1 3c
       0.008850649 -0.01091674 0.0021136638 0.019764462
0000e0 6b 55 88 bd ae 05 05 bd 24 ed 88 bc f2 f2 0e bc
       -0.06656917 -0.03247612 -0.01671464 -0.008724915
0000f0 76 7e 2b 3a 14 f5 95 bc 39 6a 6f bc 11 4e 5e bd
       0.00065419765 -0.018305339 -0.014612728 -0.05427367
000100 5b b5 3f bc 1f 74 e7 bb 21 db e2 bc e9 e8 24 bd
       -0.011700953 -0.0070634033 -0.02769238 -0.040261183
000110 7d a1 6b bc 80 bd 6b bb 89 1b 1c 3b 61 14 0f bd
       -0.0143817635 -0.0035971105 0.0023820123 -0.034931544
000120 e5 81 ca bb ba d5 0a 3c 41 ce 25 3c 9f 84 6b 3c
       -0.0061800354 0.008473808 0.010119976 0.014374881
000130 1a f4 8a 3c 59 ff 02 bd a0 d9 fb bc 67 cd 45 bd
       0.0169621 -0.0319818 -0.03074342 -0.04829159
000140 67 b5 36 3c 35 50 02 3c be f8 07 bd de fb 3c bc
       0.011151648 0.007953693 -0.033196203 -0.011534659
000150 20 e4 9f bc 2e 2d b8 bb 58 68 aa 3c b5 d2 77 bc
       -0.019517958 -0.00562062 0.020801708 -0.01512592
000160 e7 db 73 bc 4c 34 37 bc 4f 0e a6 3c 2e e5 eb 3c
       -0.014883972 -0.011181902 0.020270495 0.028795805
000170 22 c2 83 bb 32 e6 e6 bc a6 ce 00 bd 3d cd 23 bd
       -0.004020945 -0.028185938 -0.031447075 -0.039990652
000180 a9 99 dd 3b 0a 07 28 bd 1c 8c 0a bc 63 00 9c bc
       0.0067627025 -0.041022338 -0.008456256 -0.019043153
000190 27 0a 30 bc 98 9a d0 bc e6 45 56 3c 9e f7 0e 3c
       -0.010744608 -0.025464341 0.0130781885 0.008726029
0001a0 0f 1f d1 bc 53 9e 2e bc 2c a4 8a 3c b7 ee db 3c
       -0.025527505 -0.010657865 0.016923986 0.026847227
0001b0 15 df 78 3c f2 d8 09 3d a0 54 12 bd 0e 94 18 bd
       0.015189906 0.03365416 -0.035725236 -0.03725057
0001c0 fc 37 9d bc c4 01 88 bc c1 fd bc bb ce 73 d8 3c
       -0.019191734 -0.016602404 -0.0057675545 0.026422407
0001d0 57 18 62 3c fd 3b 22 bd a6 73 8d bc 8e 20 00 39
       0.013799748 -0.03960799 -0.01726706 0.00012219159
0001e0 3d 36 ba 3c 21 0f d0 bc 1e c3 9f 39 cf b3 2a 3c
       0.022730941 -0.025397839 0.00030472217 0.010418846
0001f0 f7 0b 82 bd 0e 4d 9a 3a 19 f2 ca 3b 84 c8 5e bd
       -0.06349938 0.0011772232 0.006193411 -0.054390445
000200 d2 60 0b bc c7 79 2a bb 52 da 89 3c d8 33 d0 3c
       -0.0085069705 -0.0026012526 0.016827736 0.025415346
000210 2d 5b 7f bd fc e6 28 bd 88 10 ff bc 29 b4 f3 bc
       -0.06234281 -0.04123591 -0.031135812 -0.029748993
000220 12 41 8b bc 55 bb 34 3c e3 1c 72 bc 92 09 09 bc
       -0.016998801 0.011030992 -0.014777395 -0.008364098
000230 e9 79 26 bd 3b 72 f1 bc 7e 6c 04 bd d5 81 ca bb
       -0.040643606 -0.029473415 -0.03233003 -0.006180028
000240 ea 70 f1 bb 4a e8 3b bc 11 a9 b3 bc 6d 82 17 bd
       -0.0073681967 -0.011468956 -0.021931203 -0.036989618
000250 45 9a ca bc 93 2c 26 bd ea 77 14 bd 75 9f b8 3c
       -0.024731765 -0.040569853 -0.03624717 0.022536973
000260 f9 f6 26 bc 0a 28 01 bd ae 08 0c bd f3 4b 0b bd
       -0.010190719 -0.031532325 -0.034187965 -0.034007978
000270 35 d2 b7 bb 93 b1 fc bc 11 89 0b bd cf 46 ce bc
       -0.0056097754 -0.030846393 -0.034066264 -0.025180249
000280 ba 41 24 bd ce 64 e8 bb 15 fd 8a bb e1 a3 be bb
       -0.040101744 -0.007092095 -0.0042415955 -0.0058178757
000290 9e ed b0 3b 97 95 34 bc 3c 38 63 3c ae 41 7f 3b
       0.00539942 -0.011021993 0.013868388 0.003894906
0002a0 8e 31 10 3c db 83 b6 3c c4 11 b9 bc aa 27 06 bd
       0.008800877 0.02227967 -0.02259148 -0.03275267
0002b0 70 c9 b5 3c 01 92 5d bb 4f ff 69 bd 09 66 22 bb
       0.02219078 -0.003380895 -0.057128247 -0.0024780056
0002c0 6c 5b a7 bc 6d 37 c0 bc dc 2d 12 bd 5d 6a 35 bc
       -0.020429336 -0.02346393 -0.035688266 -0.011072722
0002d0 90 f9 dd bc 64 8a a6 bb f5 7e 09 bd 55 89 0c bd
       -0.02709654 -0.0050824154 -0.03356834 -0.034310658
0002e0 16 db 84 3b d2 df 8a bd 9e 32 15 bd ca ba 7f bd
       0.0040544374 -0.067809716 -0.036425225 -0.062433995
0002f0 0c 10 9e bc 92 19 1a bd de da da 3c 26 6a 99 3c
       -0.019294761 -0.037622042 0.026715692 0.018727373
000300 82 73 89 bc ea 61 95 3c 28 de 92 bc 59 a3 92 bd
       -0.016778711 0.018235166 -0.017928198 -0.07160062
000310 17 ee 24 bd af 5a 82 bc 0d 50 ab 3c da 48 91 3b
       -0.040266123 -0.015912382 0.020912195 0.0044337334
000320 ce 0e e3 3c c9 21 42 bd fd aa 1b bc d7 9b 44 3c
       0.02771702 -0.0473955 -0.009501216 0.012000046
000330 a8 04 d6 3c 10 2d 1c bd 16 1d 90 bd 6e 36 09 bd
       0.026125267 -0.038128912 -0.07036798 -0.033499174
000340 03 f0 71 bd 30 48 87 bd ed c0 10 bd 2e a0 51 bc
       -0.059066784 -0.066055655 -0.03534024 -0.0127945375
000350 3e d6 10 bd 85 a8 13 bd 5e 69 be bc d5 9f e4 3c
       -0.035360567 -0.036049385 -0.023243602 0.027908245
000360 c6 ad 1d bd f9 ac 9c 3b e8 90 16 bd 85 9c 9e bc
       -0.0384958 0.004781362 -0.036759287 -0.019361744
000370 41 82 d8 3c 44 88 4e 3c f0 6b 0a 3c fb 07 7c 3c
       0.026429297 0.01260573 0.008448586 0.015382762
000380 62 42 e6 3c e4 73 02 bb 99 99 d3 bc fa 1b 05 bd
       0.028107826 -0.0019905502 -0.025830077 -0.032497384
000390 f2 2c ac 3b c8 d3 22 bd 04 8e 94 bc 4c e2 f3 bc
       0.0052543813 -0.03975275 -0.018134125 -0.029770993
0003a0 37 9b 6f bb 51 bf 8c bc aa 88 27 bc e4 e1 af 3c
       -0.003656102 -0.01718107 -0.010225454 0.021470018
0003b0 f4 ed 46 bc 88 28 42 3c 37 db f7 bc 14 ef 93 bc
       -0.012141693 0.011850484 -0.030255897 -0.018058337
0003c0 aa 3f a9 3c b3 e2 0c bd 9e 63 61 bd ee c9 5e bb
       0.02066024 -0.034395885 -0.055026643 -0.0033994871
0003d0 de 86 88 bc 93 d9 0c bd bf ff 8b 3c 11 9c 44 3a
       -0.016665872 -0.034387182 0.017089723 0.00075000623
0003e0 5a 42 20 bd 66 78 a8 3c 85 e5 e6 bc f6 dc a8 3b
       -0.039125778 0.020565223 -0.028185615 0.0051532937
0003f0 f7 89 78 bd 2d b3 ee bc cc b8 28 bd a3 7d 08 bc
       -0.06067845 -0.029138172 -0.04119186 -0.008330735

fc1.bias f4 [120]
000000 fe d7 83 bc 89 cd 09 bf 2e b2 d6 3e 5b 87 de bc
       -0.016094204 -0.53829247 0.41932815 -0.027164152
000010 77 34 71 bd bf b0 b5 3e 83 76 2b 3e f2 ce 47 be
       -0.058887925 0.3548641 0.16744427 -0.19512537
000020 87 39 00 bf 19 03 4c 3f 20 bf 65 be a5 fe 84 bd
       -0.5008778 0.79692227 -0.2243619 -0.06493882
000030 4f 60 05 bd a4 8f 91 bc fe e9 05 be 2c 5d 06 bc
       -0.03256255 -0.017768688 -0.13077542 -0.008200925
000040 2c ac d5 bc 7d 90 ab bd 5f 19 03 3d 57 fd 6c 3c
       -0.026083075 -0.08377168 0.032006618 0.014464698
000050 05 11 05 be 96 69 ed 3e 11 0c 85 bd 56 7e 56 bd
       -0.12994774 0.46369618 -0.06496442 -0.052366577
000060 79 d6 bf be 3a e7 5e bd b7 c6 17 3f 3f 73 f6 bc
       -0.37468317 -0.054419734 0.5928759 -0.03008425
000070 88 34 e0 be e1 0d 1f bf 80 e7 0e bf d2 f8 21 bd
       -0.43790078 -0.6213055 -0.5582199 -0.039543934
000080 84 c3 65 bd 9e 37 18 3f 1d 3d 93 bc 68 99 e5 3d
       -0.05609466 0.59459865 -0.017973477 0.112109005
000090 22 68 cb bd 68 d9 04 3f 3e a0 2d 3f 44 2d 81 bc
       -0.09931971 0.51894236 0.67822635 -0.015768655
0000a0 85 4d 57 bc 41 cf 29 bd 23 8c 55 3f e1 3a 4f 3e
       -0.013141041 -0.04145742 0.83416957 0.20237304
0000b0 0f f4 76 3e 38 e4 85 be c3 58 fd 3e 47 d0 42 bd
       0.24116538 -0.2615068 0.49481782 -0.04756191
0000c0 ac 76 55 3e 36 51 ee 3d 6e 89 22 be f1 cb 85 3f
       0.20846051 0.116365835 -0.15872738 1.0452863
0000d0 c3 87 53 3d 03 52 d2 bb 44 68 7d be a4 66 30 3c
       0.051643144 -0.006418468 -0.24746805 0.010766659
0000e0 24 be 80 bd 08 86 6a 3b f9 84 13 bd 6b 41 7d be
       -0.062862664 0.0035785455 -0.036015484 -0.24731986
0000f0 46 04 a5 3d 5f 68 e5 be ed 7b e1 bd db b0 91 bd
       0.08057456 -0.4480619 -0.11009965 -0.07113811
000100 5b 48 41 3e 1d 89 1f be 1a 6a 66 bc 88 78 fb bd
       0.18875258 -0.15579648 -0.0140633825 -0.12278849
000110 8e 00 96 bc c1 59 27 be 1b 8a f8 bc 9c be 71 3e
       -0.018310811 -0.16342832 -0.030339291 0.23607868
000120 91 6c f7 bc 31 10 6d bd 6b 44 92 3e 5e ad ee be
       -0.030203136 -0.05787677 0.28567824 -0.46616644
000130 b8 7f 00 bc 0a 12 9d 3e d9 77 ff 3e 42 62 bc 3e
       -0.0078429505 0.30677825 0.49896124 0.36793715
000140 e3 87 5d 3e b8 f2 69 be c2 7a ff bc bc 57 c0 3e
       0.21633868 -0.22846496 -0.031186465 0.37566936
000150 41 9d 7e bd 7c 29 d4 bc a2 a5 be bd 90 de 94 bb
       -0.062161688 -0.025898688 -0.09308936 -0.004543133
000160 24 ae 43 3f 00 5e 9c ba 19 50 17 3f c7 4e bd bd
       0.7643759 -0.001192987 0.59106594 -0.09243541
000170 34 66 88 be 78 c1 34 bd 11 a4 b0 be 80 2c 27 be
       -0.26640475 -0.04412982 -0.34500173 -0.16325569
000180 ac d2 c2 be e6 d7 18 bc e5 fd e3 3e 69 1b 01 bd
       -0.38051355 -0.009328818 0.44529644 -0.03152028
000190 b9 e2 a2 bd 0f 85 b0 be ee eb 5e be a6 f6 3e 3e
       -0.079534 -0.34476516 -0.21769688 0.18648776
0001a0 8b 9c 96 bc 3d 3f 44 be 83 7d 6f bd d1 bf 30 bd
       -0.018385192 -0.19164748 -0.058469307 -0.04315168
0001b0 93 ba b0 bc 0e 0a 8c bc 58 78 00 3f e3 e4 44 bd
       -0.02157334 -0.017094638 0.5018363 -0.048069846
0001c0 ba 3f b3 3d 80 0a 9b bd 70 9f 95 3e a0 f9 4b 3e
       0.08752389 -0.07570362 0.29223204 0.19919443
0001d0 99 3b 6a bd 7b 2a e4 bc 7c 2c 15 3e 4d 07 cc 3e
       -0.057185743 -0.027852288 0.1456775 0.3984932

fc2.weight f4 [84, 120]
000000 6b e4 72 bd 69 86 9e be 5f 34 a9 3c 8e 2e d3 3c
       -0.059299868 -0.30961922 0.020654855 0.025779035
000010 85 a1 71 3e 7e 56 cf 3d dc 33 83 3e bc b3 8c be
       0.23596771 0.10123919 0.25625503 -0.27480876
000020 f7 1b ee 3c aa 49 a0 3d 8a c8 8f 3e 92 95 71 bd
       0.029066069 0.0782655 0.28082687 -0.058980532
000030 51 4c 86 3d b8 b2 17 bd 2e 15 d1 3e 22 11 9d 3d
       0.06557525 -0.037035674 0.4083647 0.076692834
000040 13 93 b3 3d 63 2c f2 bd a7 aa a3 3b 2c 40 bb 3b
       0.087682866 -0.11824872 0.0049947086 0.005714437
000050 46 c2 81 be 5e de ac 3d a8 bb af 39 ba 0b ca bc
       -0.2534353 0.08440851 0.00033518416 -0.024663795
000060 40 f8 80 be c1 3f 9a be 67 14 16 3d f0 0a bf 3d
       -0.251894 -0.30126765 0.03664055 0.09328258
000070 27 8b 14 be 7f e7 00 bf 61 88 80 be 00 a6 fe 3e
       -0.14506207 -0.50353235 -0.2510405 0.49736023
000080 7a 6e 36 bd bc c2 cb 3d 32 18 80 bd 2d 34 46 bc
       -0.044538952 0.09949252 -0.06254615 -0.012097401
000090 14 bb 9b 3e e1 2e bc bd eb 32 c5 bd c5 a8 93 bd
       0.30416167 -0.09188629 -0.096288525 -0.072099246
0000a0 06 1a 28 bc 74 b2 78 3e 18 2e 8d bd 9a 58 cc 3d
       -0.010260111 0.24286824 -0.06893557 0.09977837
0000b0 f1 de 09 bf 71 da c0 3d b5 ae a7 be 55 d5 83 3c
       -0.53855807 0.094166644 -0.32750478 0.016092936
0000c0 2f ae c5 3e 80 74 82 3e 9a de f8 bd c0 41 96 3c
       0.38609454 0.25479507 -0.12151833 0.018341899
0000d0 9b 51 29 3d 9f 39 27 bc c3 14 4d bc f4 cf 08 bd
       0.04133759 -0.010206609 -0.012517157 -0.033401445
0000e0 e7 1c 15 bc a0 ad 8e bd ed 4b 9b bd 55 3b 30 3e
       -0.009101129 -0.0696671 -0.07582841 0.17210133
0000f0 e7 c2 af 3c 66 1d 0c be 9b f7 1b be 79 c1 50 3d
       0.021455241 -0.1368309 -0.15231173 0.05096576
000100 b3 15 ad be 73 d2 9d 3e 2c 36 ff bb 39 7f a0 3c
       -0.33805618 0.30824623 -0.00778844 0.019591914
000110 6d 52 ab 3c 6e 56 18 bd 0a 39 95 3c 59 66 63 3e
       0.020913327 -0.0371918 0.018215675 0.22207011
000120 50 be 48 3d 12 e7 86 bc 73 e7 36 3e 7d fd dc ba
       0.04900962 -0.016467605 0.17861728 -0.0016860213
000130 b1 b4 3b bd ab 6f 63 be 7c 68 ad ba 2b d7 02 3e
       -0.045826618 -0.22210567 -0.0013229991 0.12777393
000140 ce 20 53 bd 05 f1 24 bd 58 ad 4d 3d 82 14 01 bf
       -0.051544957 -0.040268917 0.05021414 -0.5042192
000150 e2 5e 4a be 89 11 56 3d 58 13 a8 3d 21 08 1b 3d
       -0.19762757 0.052262817 0.082068145 0.03784955
000160 a5 2c c0 be d2 b4 e4 bb 65 24 e8 3d b1 ab 10 3c
       -0.3753406 -0.0069795633 0.11335067 0.008829997
000170 a3 80 31 bd b1 25 30 3d e9 e0 4a 3e ef ee 07 3f
       -0.04333557 0.043004695 0.19812359 0.5309896
000180 73 50 35 3d 9b 70 0c bc 21 97 67 3e f0 58 d1 bd
       0.044266175 -0.008571769 0.22616245 -0.102220416
000190 41 17 6e bd 45 56 87 bb 06 5e d5 3c e0 20 a3 be
       -0.058127645 -0.004130157 0.02604581 -0.3186102
0001a0 a8 db a8 3c 88 61 de 3e 0d 20 58 bc 95 6e 9c 3e
       0.020612553 0.43433785 -0.013191235 0.30553117
0001b0 8b 85 d9 bd 46 f7 98 3d cf 71 03 be 81 24 f3 bc
       -0.106211744 0.07469039 -0.12836383 -0.029680492
0001c0 5d 90 05 3e 15 c4 7a be f6 c5 eb be 5d 99 e5 3e
       0.13043351 -0.24488862 -0.4604947 0.4484357
0001d0 55 1c ff bd 81 f8 9b 3c 4a 62 0b bd be a8 9f be
       -0.12456576 0.019039394 -0.034029283 -0.31183428
0001e0 54 24 8f 3d ea 24 c9 bd 11 e7 af be 6c c6 93 3d
       0.06989351 -0.09821494 -0.34355977 0.0721558
0001f0 b1 3f dc bd a0 06 d9 be 45 87 86 3d 33 4d 90 be
       -0.10754336 -0.42387867 0.06568769 -0.28183898
000200 41 59 ba be db df ad 3d 03 43 4e be 07 d0 36 bd
       -0.3639622 0.08489963 -0.2014275 -0.044631984
000210 fe 7a 5a be f3 44 a2 3c a9 82 d0 be d3 0b 88 3e
       -0.2133598 0.019808268 -0.40724686 0.2657152
000220 3c 81 a0 3d b4 d5 2e bd 23 8a 62 3e df 7c 92 bd
       0.078371495 -0.042684272 0.22123007 -0.071527235
000230 e1 60 01 be f3 95 dd 3e fb d3 70 3d 15 29 4e 3d
       -0.12634613 0.43278465 0.05879591 0.050332148
000240 d8 86 12 3c 89 92 89 3d 79 11 65 3d 53 81 a0 3c
       0.008943282 0.067174025 0.055924866 0.019592917
000250 37 41 83 3e 52 41 ff be 8c b3 ab bd 95 b5 e5 be
       0.25635692 -0.49854523 -0.08383855 -0.448651
000260 81 1a a2 3c 32 af da 3d 3c c1 cf bc 46 eb e7 bd
       0.019788029 0.10677947 -0.025360696 -0.11324172
000270 dc 69 73 3e d3 65 c9 3e f6 3f 3f bd d7 68 c0 be
       0.23770851 0.39335498 -0.046691857 -0.37579986
000280 b1 25 06 bc 8c 8b 0d bb d7 b0 48 bd 51 3e 68 bd
       -0.008187697 -0.002159807 -0.048996773 -0.056700055
000290 ab c6 e7 be 1c b5 88 be db a5 2f be 3a 30 9b bd
       -0.4526876 -0.26700675 -0.17153113 -0.07577558
0002a0 ec e5 15 be c1 36 69 bd d7 f1 c5 bb 49 92 42 3e
       -0.1463849 -0.056936983 -0.0060407924 0.19001116
0002b0 ed 94 54 bd 20 c0 8f 3c 45 6e 8e bc d0 8f 9f 3d
       -0.05189984 0.017547667 -0.017386565 0.07791102
0002c0 5f 03 cd bb c9 06 b5 3d 92 e5 bd 3c 49 c0 c3 be
       -0.0062565054 0.08839185 0.023180757 -0.3823264
0002d0 e8 64 70 be a9 0e e6 bd 17 ff c6 3c cf 99 b3 bd
       -0.23475993 -0.11233265 0.024291558 -0.08769571
0002e0 4e f2 ea 3d ba 01 5d bc 40 f6 78 bd 7d 0d d6 3d
       0.11471997 -0.013489181 -0.060781717 0.104517914
0002f0 71 c5 77 3d 16 cd 2a be db 6d 83 bd bc 2e 5a 3d
       0.06049103 -0.16679797 -0.06417438 0.053267226
000300 fb 5c c1 bc 58 2b 7f bd 2d c8 3a 3e 8d ad 88 be
       -0.023603907 -0.062297195 0.18240424 -0.2669491
000310 46 fc b7 bc ad d9 1b bf 29 da 25 bd bc 37 b0 3e
       -0.02245916 -0.6087902 -0.040491257 0.34417522
000320 54 b3 08 3e de c5 a3 bb c7 94 98 3c 5b b4 97 3e
       0.13349658 -0.004997953 0.01862563 0.29629788
000330 ed 2c a2 be 7d 4b c4 3c c6 27 1c 3d a2 bf 80 3d
       -0.316749 0.023961777 0.03812387 0.06286551
000340 2e c5 86 be 9b 5a 11 3d 88 53 7b 3e 17 4a 25 bd
       -0.2632231 0.0354868 0.24543583 -0.04035386
000350 56 c0 d4 be cc 67 d8 3d e7 1f 1e be 6f ae bf 3e
       -0.4155299 0.10566673 -0.15441857 0.3743777
000360 65 67 19 3e 1e 55 6d bd 13 22 77 3e 74 d4 f3 bb
       0.14980848 -0.057942502 0.24134092 -0.007441098
000370 09 63 32 3d 9a 3d 96 bd 7c 55 f9 be 0d 9c c0 3c
       0.04355148 -0.07335968 -0.48698032 0.02351191
000380 1a fb 9a 3d f9 75 f5 be 1a 43 96 bd 53 ef ab be
       0.07567425 -0.47941568 -0.07337017 -0.33581027
000390 39 8b 8e 3d e6 77 73 3d d4 0d a0 3e f2 11 81 bd
       0.06960148 0.059440516 0.3126055 -0.06302251
0003a0 01 c8 ad bd fe 73 a5 3e 73 b9 d8 3d 85 cc b2 3e
       -0.08485413 0.32315058 0.10582247 0.3492166
0003b0 10 e9 54 3c 1d dd 9b bd 8d 4c 0c bd 4c 55 87 be
       0.01299502 -0.076105334 -0.034252692 -0.26432264
0003c0 d7 91 a7 bd 8c 16 97 3d 54 ee 26 bd 44 60 83 3b
       -0.081821136 0.07377347 -0.04075463 0.0040092785
0003d0 31 3c ee bd 30 67 d2 be e9 37 cc 3d 45 66 67 be
       -0.11632574 -0.4109435 0.099716015 -0.22597606
0003e0 2d ad 3d be 5f b0 4f 3e a8 18 0e 3d 51 c5 53 bd
       -0.18523093 0.20282124 0.034691483 -0.051701847
0003f0 08 46 4c 3f bd f5 39 bd 97 f6 27 3d 9d e6 18 bb
       0.7979436 -0.04540037 0.04100665 -0.0023330816

fc2.bias f4 [84]
000000 77 9e 9a 3e 4f 44 a8 3e e2 90 b8 be 3d 00 a0 3e
       0.30199024 0.32864615 -0.36048037 0.31250182
000010 71 83 ca 3e 71 e7 1c be 73 0b dc bd e1 8d 8d 3f
       0.39553407 -0.15322663 -0.10744371 1.1058923
000020 58 9b 2c bf 83 1c 82 3d 8e e9 a8 be 17 12 56 3d
       -0.67424536 0.063530944 -0.32990688 0.052263346
000030 69 c7 5b 3f 33 a7 1d bf 77 f9 3a bf 1f d7 74 be
       0.8585115 -0.6158325 -0.73036903 -0.23910187
000040 7f 0d d8 3e 52 0d de 3e 2e ad e8 3e 47 8a f2 bd
       0.42197797 0.43369538 0.45444626 -0.118427806
000050 af 06 9c be a9 af ef 3e b0 b4 ab 3e ff d5 da 3d
       -0.3047385 0.46813706 0.3353629 0.10685348
000060 67 e8 05 bf 9a b5 8f 3e 87 dc 9c be c9 b5 62 3e
       -0.5230774 0.28068238 -0.30637 0.22139658
000070 f1 b9 ef be 4e 88 e5 be e5 34 09 3f af 4a 5c 3f
       -0.4682155 -0.44830555 0.53596336 0.8605146
000080 7f 6c af 3e cd 69 85 3e 30 3d d9 bc 2d b0 c0 3d
       0.34262463 0.26057282 -0.026518434 0.09408603
000090 9a 09 aa be 9f b3 08 3f a9 1c 40 3e 3c 15 8e 3f
       -0.3321045 0.5339908 0.18760933 1.110023
0000a0 47 8a 36 3d 23 19 6d 3e 17 8e 87 3d a0 84 41 bf
       0.044565465 0.2315412 0.06618898 -0.75592995
0000b0 64 31 cb 3d 15 ac a6 3d 84 10 67 3f f7 c8 1c bd
       0.0992153 0.08138291 0.90259576 -0.038277593
0000c0 86 f8 6f 3e 33 3e 22 3f 08 3c c1 bd df db 72 3f
       0.23434648 0.6337616 -0.09435278 0.94866747
0000d0 1c f7 29 3f c8 b5 9d bd d4 20 3c bd 25 22 b3 bd
       0.66392684 -0.07700688 -0.045929745 -0.08746747
0000e0 6d fa db 3e 3f 7c c1 bd 8c 7e 8c 3f 91 12 41 be
       0.42964497 -0.09447526 1.0976119 -0.18854739
0000f0 74 af 56 bd 3d 85 8b 3e 83 98 f3 3e 55 84 f5 3e
       -0.05241342 0.2725009 0.47577295 0.47952524
000100 2e cf 62 3e bf 86 49 bd 04 63 e4 be d7 cf 79 be
       0.22149345 -0.04920077 -0.44606793 -0.24395691
000110 07 76 c6 3e 7f 21 13 3f fc a6 a9 be 38 59 a1 be
       0.38761923 0.57472986 -0.3313521 -0.3151338
000120 56 5d 6b bd 9f b6 fb 3e cc e2 17 be cd 3b 9d 3f
       -0.05746206 0.49162766 -0.1483261 1.2283875
000130 d6 68 7f 3c 0b 87 42 3e 79 5d 44 3f 4a 8d 1c be
       0.01558896 0.18996827 0.7670513 -0.15288273
000140 74 fb 32 bf 54 2b 34 bd 63 73 8e 3f a9 9a 07 bf
       -0.69914937 -0.043986633 1.1128963 -0.5297037

fc3.weight f4 [10, 84]
000000 71 2c f5 3b 98 1c fd bd df e4 93 3e 3c 77 31 be
       0.0074821045 -0.123589694 0.28885552 -0.1733064
000010 51 4e 40 3d a8 02 4f bf 6b c6 13 3d fb b8 1e 3e
       0.04694969 -0.8086343 0.036077898 0.15500252
000020 4d 71 13 3e 2a 14 41 3e 44 77 47 3e 75 fb 9b bc
       0.1439869 0.18855348 0.1947909 -0.019040802
000030 97 d7 d0 bc 2c 1f bf 3d 89 59 70 be cd d8 86 be
       -0.025493426 0.093321174 -0.23471655 -0.2633728
000040 05 10 81 be 72 b4 f0 3d 38 cc 37 3d d6 2a a6 be
       -0.25207534 0.11753167 0.044872493 -0.32454556
000050 95 9d 9d 3d c7 e1 b9 be 69 76 e5 bd 25 e8 39 be
       0.07696072 -0.36305067 -0.112042256 -0.18154962
000060 86 95 7a 3c 7a 31 e9 be c3 d8 4e be 08 fa ab bd
       0.015294438 -0.4554556 -0.20199876 -0.08397299
000070 93 ec 32 3d b4 54 27 3e 23 87 0d bd 68 b1 a4 be
       0.043682646 0.16340905 -0.034552705 -0.321666
000080 d3 9c 53 be 8b 70 55 bd 5f 24 b0 bc 3b a1 19 bd
       -0.20665292 -0.052109282 -0.021501718 -0.037507277
000090 de 6b ee bd bf a4 51 3e 2f 8a 44 3d ab b0 51 be
       -0.11641668 0.20473002 0.047983345 -0.2047755
0000a0 39 1b 59 be 2c 31 29 be 6e 7d 9b bd 28 f1 d9 3d
       -0.21201791 -0.16522664 -0.07592283 0.106417
0000b0 e9 87 d8 3d 14 15 1f 3e 08 b4 6e 3d 90 a6 a1 3d
       0.10572798 0.15535384 0.05827716 0.078930974
0000c0 61 57 5c 3d b7 7f 99 be a6 af a4 be b0 f9 8c be
       0.05379427 -0.2998025 -0.3216526 -0.27534246
0000d0 a8 b9 af bd ab 9e 01 3e 71 67 25 3e 51 2e 6c bd
       -0.08580333 0.12658183 0.16152741 -0.05766136
0000e0 e2 d7 e1 3d 05 a3 bb be 0f 31 17 be 18 f1 fa 3d
       0.110275045 -0.36647812 -0.14764808 0.12253016
0000f0 06 93 85 3d 94 71 72 bd 79 9d b7 3d 1d 18 0a be
       0.06522183 -0.059190348 0.089655824 -0.13485761
000100 91 35 32 3e 25 4c ca 3c 1d 8e 0a be 14 9c 8d 3e
       0.17403246 0.024694512 -0.13530774 0.2765814
000110 6c 8d b0 be 9d c1 02 bd 4d 4e 10 be 0e 04 8e 3e
       -0.34482896 -0.031922925 -0.1409237 0.27737468
000120 0c c1 7f be 57 dc 48 3d d2 9c a4 bb 26 27 19 be
       -0.24975985 0.049038257 -0.0050235773 -0.1495634
000130 8a 82 8c bd cd ff b7 bd 2c 12 63 be 25 89 61 be
       -0.06860836 -0.08984337 -0.22174901 -0.22024973
000140 4f 36 9f 38 6d 3c f7 bd ff 4b 31 3d b7 9c 09 3e
       7.5918266e-05 -0.12072072 0.043285366 0.13438688
000150 fb b1 ca 3d 6b aa 02 be 65 56 8a be 21 e0 1e bd
       0.09897228 -0.12760322 -0.2701904 -0.038787965
000160 fc 85 40 be 1b cb db be 84 8f a1 bd 70 d5 3e 3d
       -0.18801111 -0.42928395 -0.078887016 0.04659027
000170 6d 47 4a 3e 6b 8d 91 be 11 db b8 be 5a be 0e 3e
       0.1975381 -0.28428206 -0.36104634 0.13939801
000180 d1 32 4f be 48 e3 00 3e c4 4a 08 3e 6f da c5 3d
       -0.20234229 0.12586701 0.13309771 0.096608035
000190 82 a1 fd be 63 88 09 be e9 77 bb be 03 25 92 3e
       -0.49537283 -0.13430934 -0.36614922 0.28543863
0001a0 5c 7b e4 3d 8b 2a 68 3c 6d cc 4f be a4 31 c5 be
       0.111563414 0.014170299 -0.20292826 -0.38514435
0001b0 4a a4 da 3d 59 d3 76 bc cd 6f 30 3e 6b 89 8f be
       0.10675867 -0.015065038 0.17230149 -0.2803453
0001c0 c0 6f e4 bd 76 01 09 be 7f d7 8e be 55 e4 50 be
       -0.11154127 -0.13379464 -0.27898785 -0.20399602
0001d0 22 f6 31 bd 38 61 9a 3c f3 12 07 be 7a f6 9b bd
       -0.04344762 0.018845186 -0.13190822 -0.07615371
0001e0 4f f7 e3 3d 94 03 f0 bd dd a3 84 3d 87 15 2f be
       0.11131155 -0.117194325 0.06476567 -0.17098056
0001f0 ae 8c 02 3d 06 02 61 3d 91 14 df 3d f5 b7 9f 3d
       0.031872444 0.05493357 0.108925946 0.07798759
000200 73 d3 c5 bc b6 ee 43 bd 40 bc ac 3d e1 2d 5e 3e
       -0.024148678 -0.047835074 0.08434343 0.21697189
000210 a3 f7 f9 3d 98 55 9d be 25 f8 aa 3c 22 d7 dd bd
       0.12205436 -0.30729365 0.020870278 -0.10832049
000220 2b 75 29 bc ea 31 9c be da 72 72 3e 69 8a 01 be
       -0.010342876 -0.3050683 0.23676625 -0.12650456
000230 f1 1f 21 3c 85 08 14 be 1d 47 3d be 38 a1 21 3d
       0.009834276 -0.14456375 -0.18484159 0.03946039
000240 de 5b 5f bc 78 87 08 bf 51 04 67 bd 4a d9 80 be
       -0.013632743 -0.5333171 -0.0564006 -0.25165778
000250 12 3c 8e be fa d2 3f be 6c a1 53 3e 19 7d 96 be
       -0.27780205 -0.18732825 0.20667046 -0.29392317
000260 e8 6f cf 3b 25 8e 23 bd 3e 9f 35 3e de e7 19 3e
       0.006330479 -0.03993048 0.17736527 0.15029857
000270 83 97 c9 be 1c 4a 4e be 34 b9 2b be ce 13 50 bd
       -0.39373407 -0.20145458 -0.16769868 -0.050800137
000280 b4 0e dd 3a 9e 3b 9c bc 7e 3e 7c be 78 85 f4 be
       0.0016865344 -0.019071396 -0.24633214 -0.4775808
000290 ae 29 c6 bc 7b b1 f1 3d 31 b1 0f bf d6 f3 b3 3d
       -0.024189796 0.1180143 -0.5612975 0.087867424
0002a0 8f 2b ae be d4 84 68 bd 03 03 ae be 68 f7 5a be
       -0.34017608 -0.0567673 -0.33986673 -0.2138344
0002b0 75 b4 a6 3b 71 6a 23 bf 6a 62 5b be 52 fa cd bd
       0.00508743 -0.6383429 -0.2142426 -0.100575104
0002c0 7d 25 ee be db 93 ad bd ac e3 93 3e 15 63 f0 bd
       -0.46512976 -0.08475467 0.28884637 -0.117376484
0002d0 5f bb 1e 3c 00 6f ed bd fb 43 12 3d b4 8e 9f be
       0.009688227 -0.11593437 0.035709362 -0.3116356
0002e0 1f 01 16 3e a4 ed 1c bc 4d d1 d9 3d 56 e2 06 bf
       0.14648865 -0.009578142 0.10635624 -0.5268911
0002f0 7c 25 2c be f7 97 04 3d fa 66 a9 3d 3b 97 69 be
       -0.16811174 0.032371487 0.08271594 -0.22811596
000300 34 6c 77 3d 40 be 06 3d 98 47 30 be 92 34 a5 bd
       0.060405925 0.03289628 -0.17214811 -0.080666676
000310 60 ec 70 be 63 e8 10 be 08 22 1b 3d 71 ed 7f 3d
       -0.2352767 -0.14151148 0.03787425 0.0624823
000320 12 96 38 3e 43 a7 a2 bd 42 54 3a 3e 55 7d af 3a
       0.18025997 -0.07942059 0.18196204 0.0013388792
000330 72 bf de be 7d b8 93 bd c8 4a f9 bd 62 ac a7 3c
       -0.43505436 -0.07212923 -0.121724665 0.02046794
000340 77 6d 0e 3e fe 95 a0 be 79 37 46 be df 75 3c 3d
       0.13908945 -0.31364435 -0.19357099 0.046010848
000350 79 c6 74 3d 33 9a 21 bd 6c d1 c8 bd 99 0e 85 3d
       0.05975959 -0.039453696 -0.09805569 0.06496925
000360 6b 72 f2 bd 8b 18 bd 3d e5 ee 8b 3d db a6 df 3d
       -0.1183823 0.09233197 0.06832675 0.10920497
000370 23 b2 30 be 2c 3b 46 bd 21 75 70 bd a0 73 17 3e
       -0.17255454 -0.048396274 -0.058705453 0.14790201
000380 54 23 0a bd 4b 72 0d bd aa ed 56 be f7 1b 3e be
       -0.033725098 -0.034532826 -0.20989099 -0.18565355
000390 df c1 26 3e 92 a4 c3 3d 4c 26 c1 3d 77 b0 3a be
       0.16284893 0.09552874 0.09431133 -0.18231378
0003a0 0b 3d 21 bd 9d eb 81 3e 73 6e 43 3e ea 8c 8d be
       -0.039364856 0.2537507 0.19085102 -0.2764657
0003b0 94 6a 66 3d b6 cb a3 be 7d 2a 17 be ae 3c bc 3c
       0.056253985 -0.31991357 -0.14762302 0.022978153
0003c0 1b f5 87 be c9 b0 2d bc 93 26 12 bc 4c a9 2d be
       -0.26554188 -0.010601231 -0.00892033 -0.16959113
0003d0 cd e3 78 be 71 d8 2d 3d 88 c5 7f 3c ef 43 c8 be
       -0.24305649 0.042442743 0.01561106 -0.3911433
0003e0 4f 55 27 3e f8 71 2a bd 7c 28 1b be 01 48 02 3d
       0.16341136 -0.041612595 -0.15152162 0.03180695
0003f0 1a 1b 99 3d 52 59 2d 3d 3e f8 37 be dc 24 30 3e
       0.07475872 0.04232151 -0.1796579 0.1720156

fc3.bias f4 [10]
000000 b8 1f 0d bc 23 81 45 bf 2e 9a ee be 94 a9 1f 3f
       -0.008613519 -0.7715017 -0.46602005 0.6236813
000010 eb 04 77 3f 49 b5 67 3d 18 d3 8b bb 82 cc 93 be
       0.9649188 0.05656937 -0.0042671077 -0.28866965
000020 73 91 bb bd 23 37 a2 be
       -0.091586016 -0.3168269
