ClassicalNetwork/Classification/0_Letnet/workspace/Lenet_20230905.pth (torch, 487623 bytes, 10 tensors)

conv1.weight f4 [16, 3, 5, 5]
0	0x3dfe8c1b	0.12429067
1	0xbd8db48f	-0.069192044
2	0xbc5930f8	-0.013256304
3	0xbdc1feab	-0.09472402
4	0x3e21f37e	0.15815541
5	0x3dd3001e	0.10302757
6	0x3df219d9	0.11821336
7	0xbd6b9cf4	-0.05752273
8	0xbe735551	-0.23763014
9	0xbb1ffe4c	-0.0024413047
10	0x3dbc733f	0.09201669
11	0x3e3fa60a	0.18715683
12	0xbcf31484	-0.029672869
13	0xbd7e00ac	-0.06201236
14	0xbe2dfe33	-0.169915
15	0xbdcedd0a	-0.101007536
16	0x3e4958d9	0.19662799
17	0x3d6ec3cc	0.058292195
18	0xbcc0a3d0	-0.023515612
19	0xbcbfd5e1	-0.023417415
20	0xbdf9e61f	-0.12202095
21	0xbcf4348c	-0.029810213
22	0x3dbabdf4	0.09118262
23	0xbd438c61	-0.047741298
24	0xbd3debf1	-0.04636759
25	0xbbff08aa	-0.0077830153
26	0xbd614317	-0.054995622
27	0xbe0e7e32	-0.13915327
28	0xbdbfb56f	-0.093607776
29	0xbcb20ae8	-0.021733716
30	0x3e3d78fa	0.1850318
31	0x3d9b9a72	0.075978175
32	0xbe6177eb	-0.22018401
33	0xbdec325c	-0.11533043
34	0x3c093767	0.008375025
35	0x3dcc48d9	0.09974832
36	0x3e7d941b	0.24763529
37	0xbe0045dc	-0.12526649
38	0xbe43d1d3	-0.1912301
39	0xbe2b1cfb	-0.16710274
40	0x3ddd8bd4	0.10817686
41	0x3ce27524	0.027643748
42	0x3d927e89	0.07153041
43	0x3d717420	0.058948636
44	0xbdc2c8b9	-0.09510941
45	0xbd5a1aab	-0.05324809
46	0x3d57a9c4	0.052652135
47	0x3dd57e78	0.104245126
48	0x3c2faee9	0.010722854
49	0x3dac07c7	0.08399921
50	0x3d2e121c	0.04249774
51	0x3cbdbc44	0.023161061
52	0xbe34a45c	-0.17640823
53	0xbe190b43	-0.14945702
54	0x3d259fba	0.04043553
55	0x3e54cc1c	0.20780987
56	0x3d3398d4	0.04384692
57	0xbd9f15b8	-0.077678144
58	0xbe45bd3b	-0.19310467
59	0xbd8b89fd	-0.068134286
60	0x3dffbc92	0.12487139
61	0x3e07b118	0.1325115
62	0x3d806087	0.06268411
63	0xbd622805	-0.055213947
64	0xbe1143e0	-0.14186049
65	0x3bd21fe2	0.006412492
66	0x3dcf79d5	0.101306595
67	0x3d465454	0.048420265
68	0x3d0b50ec	0.03401272
69	0xbd8e89a0	-0.06959844
70	0xbbd02a75	-0.0063527175
71	0x3d41c008	0.047302276
72	0x3e073109	0.13202299
73	0xbd6394ae	-0.055561714
74	0x3c0decd5	0.008662422
75	0xbe1a89e3	-0.15091662
76	0xbdb9242a	-0.09040101
77	0xbdaffb60	-0.08592868
78	0xbd52aae6	-0.051432513
79	0xbe09b8a9	-0.13449349
80	0xbe6bbd09	-0.2302133
81	0xbdc0f85f	-0.09422373
82	0xbe585c0d	-0.21128865
83	0xbdde2729	-0.10847313
84	0xbe41695b	-0.18887846
85	0x3d24c557	0.04022726
86	0xbe0315ac	-0.12801236
87	0xbdb00638	-0.08594936
88	0x3c50d162	0.012745233
89	0xbe16d832	-0.1473091
90	0xbcc934d9	-0.024561333
91	0xbe0bbe68	-0.13646853
92	0xbd11cf6e	-0.03559821
93	0x3d18b989	0.037286315
94	0x3d730eec	0.059340402
95	0xbd619410	-0.055072844
96	0xbdf96305	-0.121770896
97	0xbd0758dc	-0.033043727
98	0xbdb4916f	-0.08816802
99	0xbd73edb4	-0.059552863
100	0x3d788dbd	0.060682047
101	0xb9ade135	-0.00033164924
102	0x3bca1788	0.006167356
103	0x3dac920c	0.08426294
104	0xbd473fd6	-0.048644863
105	0xbc749031	-0.014926956
106	0x3de75de0	0.11297202
107	0xbb8ea7e0	-0.0043535084
108	0xbd219997	-0.039453115
109	0x3da74c3b	0.08168837
110	0x3d79312f	0.06083792
111	0x3d2d4f50	0.042311966
112	0x3d4a3b95	0.049373228
113	0x3e03e5b7	0.12880598
114	0xbd0af582	-0.03392554
115	0xbd2adcd8	-0.04171452
116	0xbd0202db	-0.031741004
117	0x3e185b80	0.14878654
118	0x3da4457a	0.08021064
119	0x3dab7518	0.08371943
120	0xbdccd363	-0.10001256
121	0xbd79c04f	-0.060974415
122	0xbd48ae22	-0.04899419
123	0x3e10fbf6	0.14158615
124	0xbdd04e19	-0.10171146
125	0x3d6cf9fc	0.05785559
126	0x3e175510	0.14778543
127	0x3da33861	0.07969738
128	0x3e2e6681	0.1703129
129	0x3e27925c	0.16364425
130	0x3dc4194c	0.095751375
131	0x3ccd742e	0.025079813
132	0x3dc342d8	0.09534234
133	0x3e145602	0.14485934
134	0xbce8f8fe	-0.028439041
135	0x3e1af463	0.15132289
136	0x3e585de7	0.21129571
137	0x3e30de0a	0.17272201
138	0x3c5966d5	0.013269146
139	0x3d7ae1e7	0.061250594
140	0xbc7193b6	-0.01474469
141	0x3d0243f4	0.031803086
142	0x3c9ca221	0.019120278
143	0x3ab7d819	0.0014026194
144	0x3d91b675	0.07114879
145	0x3d58dc49	0.052944455
146	0x3c104d91	0.008807556
147	0x3d28380e	0.041069083
148	0xbddd350b	-0.10801133
149	0xbd9e1cb7	-0.07720321
150	0xbddef57f	-0.108866684
151	0x3d8b3190	0.06796563
152	0x3c396740	0.011316121
153	0x3d8e1df8	0.0693931
154	0xbe000557	-0.12502037
155	0x3e423a93	0.18967657
156	0x3e1bee6a	0.15227666
157	0x3e04a68d	0.12954159
158	0x3e24a526	0.16078624
159	0xbd8630bd	-0.06552265
160	0x3d876cf2	0.066125765
161	0x3d90ea0e	0.070758924
162	0x3d816e80	0.06319904
163	0xbd86402a	-0.06555207
164	0xbddeb662	-0.108746305
165	0x3d2fb5f2	0.042898126
166	0xbda3dbef	-0.080009334
167	0xbcc8f4d9	-0.024530815
168	0xbd86056e	-0.065440044
169	0xbd10a25d	-0.03531109
170	0x3d495474	0.049152806
171	0x3d8a11ad	0.06741653
172	0x3d5957f6	0.0530624
173	0x3da4c73c	0.080458134
174	0xbc5ac67b	-0.0133529855
175	0x3dc3718d	0.095431425
176	0x3dd3b5e8	0.1033743
177	0x3e13d003	0.14434819
178	0x3e206c78	0.15666378
179	0x3d608863	0.05481757
180	0x3c24af6f	0.010051592
181	0x3dfff9b0	0.12498796
182	0x3daabc21	0.08336664
183	0x3ab717c3	0.0013968874
184	0x3c008bd7	0.00784584
185	0x3d65aa75	0.056070764
186	0xbdd482fc	-0.10376546
187	0xbe146608	-0.14492047
188	0x3bd8f3ae	0.0066208458
189	0x3b3fad83	0.0029247708
190	0xbd717e6e	-0.058958463
191	0xbdc583bc	-0.09644267
192	0xbe36172c	-0.17782277
193	0xbdffcb2b	-0.12489923
194	0xbe1aab9d	-0.15104528
195	0xbd621cf1	-0.055203382
196	0xbda2e63e	-0.079540715
197	0xbd8fdef2	-0.07024945
198	0xbdad623f	-0.084660046
199	0x3daabc9a	0.08336754
200	0x3d8ccf85	0.06875519
201	0x3de0a4d8	0.109689415
202	0x3d72eba0	0.05930674
203	0xbce17b45	-0.0275246
204	0x3dd3ab8a	0.10335453
205	0x3cc8501d	0.024452263
206	0xbdcdf163	-0.100558065
207	0xbdb858b0	-0.09001291
208	0xbcad3da6	-0.02114756
209	0x3d98d35c	0.074621886
210	0xbdaada76	-0.08342449
211	0xbe1c2edd	-0.15252252
212	0xbdf8c25c	-0.12146446
213	0xbe341504	-0.17586142
214	0x3cb9df65	0.02268953
215	0xbd5da036	-0.054107867
216	0xbd88b1ac	-0.06674513
217	0xbdfd944d	-0.12381802
218	0xbe03b06d	-0.1286027
219	0x3cf93923	0.030422753
220	0xbd81b37c	-0.06333062
221	0x3da10031	0.07861365
222	0x3ddd90e8	0.10818654
223	0x3cc0f2ae	0.023553219
224	0x3dc25c64	0.09490278
225	0xbdcb779c	-0.09934923
226	0x3e242024	0.16027886
227	0x3e3dc4f7	0.18532167
228	0x3c861967	0.016369535
229	0xbd866eff	-0.065641396
230	0x3e6c9173	0.2310236
231	0x3dd6f043	0.10495045
232	0xbd975e59	-0.07391042
233	0xbdfc0460	-0.12305522
234	0xbd6ccfcf	-0.05781537
235	0x3e974126	0.29541892
236	0xbd39bd5c	-0.045346603
237	0xbe5bef62	-0.21478036
238	0xbd6f3b18	-0.058405966
239	0xbc87d210	-0.016579658
240	0x3e08d4e8	0.13362467
241	0xbda1279e	-0.078688845
242	0x3d57e515	0.052708704
243	0x3dee6222	0.11639811
244	0xbdf4d6d6	-0.11955039
245	0xbd805d7e	-0.06267832
246	0xbdad6159	-0.08465833
247	0x3e48ba97	0.19602428
248	0xbbdac686	-0.006676498
249	0xbd2087ca	-0.039192
250	0xbe0e6a66	-0.13907775
251	0xbdd2c5e4	-0.10291651
252	0x3d2dd1f4	0.042436555
253	0xbd361c97	-0.04446086
254	0xbe08be9d	-0.13353963
255	0x3e7dd67d	0.24788852

conv1.bias f4 [16]
0	0xbd957bf1	-0.072990306
1	0x3dc42183	0.09576704
2	0xbe5ccf7d	-0.21563525
3	0xbd1b5f31	-0.03793258
4	0xbdbd4d45	-0.092432536
5	0xbe0b4861	-0.13601829
6	0xbd9ba78d	-0.07600317
7	0xbdd4d1b5	-0.10391561
8	0xbda5b4bf	-0.08091115
9	0xbe5394ff	-0.20662306
10	0xbd925aea	-0.07146247
11	0xbe121a92	-0.14267948
12	0xbd8969c5	-0.06709627
13	0x3d99f2a1	0.07516981
14	0xbc9ad810	-0.018901855
15	0xbe05b922	-0.13058904

conv2.weight f4 [32, 16, 5, 5]
0	0x3dd4e9f4	0.103961855
1	0x3c7a7836	0.01528745
2	0x3dabe379	0.08392996
3	0x3c3ee1a9	0.011650481
4	0x3cca3fd9	0.024688648
5	0x3c5e02df	0.013550489
6	0x3d3d21c4	0.04617478
7	0x3d0d5829	0.034507904
8	0x3d3c74ce	0.04600983
9	0xbabd0437	-0.0014420812
10	0xbd1d05cc	-0.038335606
11	0xbb4a4cf9	-0.0030868633
12	0x3c748318	0.014923833
13	0x3dcf4fb2	0.101226225
14	0x3d8b4dab	0.06801923
15	0xbd05142c	-0.03248994
16	0x3d15adfc	0.036542878
17	0x3d2f9cc7	0.042874124
18	0x3d2eb2b1	0.042650882
19	0xbc56c01b	-0.013107325
20	0x3d0dda31	0.03463191
21	0xbcf9b3d6	-0.03048126
22	0x3d4cdd52	0.050015755
23	0x3d17fe3a	0.037107684
24	0x3d0eb255	0.03483804
25	0xbdc7ef0e	-0.09762393
26	0xbd572bc9	-0.05253199
27	0xbc0f54c0	-0.008748233
28	0xbc49c43d	-0.012314853
29	0x3d9cdd03	0.07659342
30	0xbd38bdf1	-0.045103017
31	0xbd1d546c	-0.03841059
32	0xbe43a74c	-0.19106787
33	0xbdb95837	-0.09050029
34	0x3d3cd4d0	0.04610139
35	0xbc8da26e	-0.017289367
36	0xbdf4f335	-0.119604506
37	0xbe13a8c2	-0.14419845
38	0xbe3b335a	-0.18281308
39	0xbd2400bd	-0.040039767
40	0xbd31cc37	-0.043407645
41	0xbdf1fc9e	-0.11815761
42	0xbe0d2d6c	-0.13786858
43	0xbe2fa787	-0.1715375
44	0xbd9fc38a	-0.07800968
45	0xbdf3292a	-0.11873086
46	0xbdb33134	-0.08749619
47	0xbe14584e	-0.1448681
48	0xbe3f967c	-0.18709749
49	0xbdfc171d	-0.12309096
50	0xbda037fd	-0.07823179
51	0xbd575e0d	-0.05257993
52	0x3cf7933a	0.03022157
53	0xbdd2ef83	-0.102995895
54	0x3a9803fe	0.001159787
55	0xbdd8e3cb	-0.10590323
56	0xbd367b4e	-0.044551186
57	0xbdff7fbc	-0.12475535
58	0x3d4320f0	0.047638834
59	0x3dba8d8e	0.09109031
60	0xbde4b453	-0.111672066
61	0xbe0ae965	-0.13565595
62	0xbdbcad61	-0.09212757
63	0xbdc4d85f	-0.09611582
64	0xbd94ce8a	-0.07265957
65	0xbdc1e02a	-0.09466584
66	0xbdcd97e8	-0.100387394
67	0xbd2141d3	-0.039369415
68	0xbde83e28	-0.1133998
69	0xbdd52afd	-0.1040859
70	0xba45ba83	-0.0007542746
71	0xbd4bcd0f	-0.049756106
72	0xbd056dce	-0.03257542
73	0xbdbbf65b	-0.09177848
74	0xbcb3fbd6	-0.02197067
75	0x3df682ab	0.12036642
76	0x3dbd95b5	0.0925707
77	0x3d43930d	0.04774766
78	0xb9c35691	-0.00037257795
79	0x3d2a22b2	0.041536994
80	0x3d024a06	0.031808876
81	0x3c2768b5	0.010217835
82	0x3d749dee	0.059720926
83	0x3d17bcf6	0.03704544
84	0x3dae13cd	0.084998704
85	0x3ca782dc	0.02044814
86	0xbc524ef1	-0.012836204
87	0x3c78dcc8	0.015189357
88	0x3dd8bc27	0.10582762
89	0x3dbab4c6	0.09116511
90	0x3cacb6a3	0.021083182
91	0x3d6424db	0.05569921
92	0x3cd03702	0.025416855
93	0x3cc70f29	0.024299221
94	0x3d192e4b	0.037397664
95	0x3cab5ee2	0.020919267
96	0xbcb77e3c	-0.02239906
97	0x3d8720d7	0.065980606
98	0xbc5284d6	-0.012849053
99	0x3db2fdd2	0.08739819
100	0xbceda891	-0.029011043
101	0xbd637851	-0.055534665
102	0xbd154669	-0.0364441
103	0xbd506c77	-0.05088469
104	0xbd5f6bcf	-0.054546174
105	0x3db974e5	0.09055499
106	0x3d1f0c9f	0.038830396
107	0xbccda357	-0.0251023
108	0x3c7a4d25	0.015277182
109	0x3d606079	0.054779503
110	0x3d3639b1	0.044488613
111	0xbdb7deb2	-0.08978023
112	0xbe118e21	-0.14214374
113	0xbda08bc3	-0.078391574
114	0xbd4a88d4	-0.049446896
115	0xbca72cc7	-0.020407094
116	0xbe048e71	-0.12944962
117	0xbe06237e	-0.13099477
118	0xbe34f6d9	-0.1767229
119	0xbe0def3a	-0.13860789
120	0x3db13987	0.086535506
121	0x3b8530ed	0.0040646703
122	0xbd02d763	-0.03194369
123	0xbc18e4e1	-0.009331913
124	0xbd4ce952	-0.0500272
125	0x3d8fa62e	0.07014118
126	0x3dacd2a9	0.08438618
127	0x3d7cdc86	0.061733745
128	0x3d7d715e	0.061875694
129	0xbb3b08f2	-0.0028539267
130	0xbd297931	-0.041375343
131	0x3d8ad0c2	0.06778099
132	0x3c458b1a	0.01205709
133	0xbc71c3bd	-0.01475614
134	0xbd8ebbb8	-0.06969398
135	0x3caf8b3f	0.021428702
136	0xbcff4501	-0.031160833
137	0xbd140487	-0.03613713
138	0xbd98fc1f	-0.07469963
139	0x3d20ac89	0.039227042
140	0xbd616df2	-0.055036493
141	0xbd898d56	-0.06716411
142	0xbcf14064	-0.02944965
143	0xbd133ecd	-0.035948563
144	0xbdaade70	-0.08343208
145	0x3d196fa7	0.037459996
146	0x3cc0d243	0.02353776
147	0xbc03654b	-0.008019756
148	0xbc93570b	-0.017985841
149	0x3c825695	0.015910426
150	0xbc103e65	-0.0088039385
151	0x3d74932a	0.05971066
152	0x3c89be99	0.016814517
153	0x3d87e7a1	0.066359766
154	0x3c92d3b7	0.01792322
155	0xbca458f7	-0.020061953
156	0xbbc14211	-0.0058977683
157	0xbb322046	-0.002717988
158	0x3d0e02e5	0.03467073
159	0x3d6791d6	0.056535564
160	0x3cbf97a5	0.02338774
161	0xbae9e29c	-0.0017844024
162	0x3c03c508	0.008042581
163	0x3d51218e	0.05105739
164	0x3d9bfe44	0.07616857
165	0xbd961f58	-0.07330197
166	0xbd1cf4af	-0.038319286
167	0xbcfcc361	-0.030854883
168	0xbd24f5a2	-0.040273316
169	0x3d0c7592	0.03429181
170	0xbbef207f	-0.007297575
171	0xbc9166a8	-0.017749146
172	0x3d366f85	0.044539947
173	0xbb1ca6ea	-0.00239032
174	0x3d128afa	0.03577707
175	0xbe0308f1	-0.1279638
176	0xbcf751a6	-0.0301903
177	0x39e8ecba	0.00044426863
178	0x3a7cf078	0.000964887
179	0x3de7e6ce	0.113233194
180	0x3ba7249e	0.0051008007
181	0xbdabc682	-0.08387472
182	0xbe0aa97f	-0.1354122
183	0xbd85c53f	-0.06531762
184	0x3d878430	0.0661701
185	0x3d182871	0.037147943
186	0xbcab23cc	-0.020891093
187	0x3cbc16e5	0.022960136
188	0xbce0dfc1	-0.027450444
189	0xbcd12b18	-0.025533244
190	0x3d9d130d	0.07669649
191	0x3dc5d963	0.09660604
192	0x3d6d9695	0.058004934
193	0x3d882da5	0.06649331
194	0x3aa3d501	0.0012499393
195	0x3da5a0ec	0.08087334
196	0x3d80bacb	0.06285628
197	0x3cfb70c3	0.030693417
198	0x3d835e06	0.06414418
199	0x3d3dca30	0.0463354
200	0x3cd74ff8	0.02628325
201	0xbc56ef37	-0.013118557
202	0x3c2298bd	0.009924111
203	0x3cc67505	0.024225721
204	0xbcb4b90c	-0.022060893
205	0xbd15f27e	-0.03660821
206	0xbd4a00d3	-0.049317192
207	0x3c0cbf3f	0.0085905185
208	0x3c2289d0	0.009920552
209	0x3cc022f7	0.023454173
210	0xbd4e07ac	-0.050300285
211	0x3cd0e469	0.02549954
212	0xbc5fc94a	-0.013658831
213	0x38adbcec	8.284472e-05
214	0x3c91158a	0.017710466
215	0xbd87edcc	-0.06637153
216	0x3cb676fb	0.022273531
217	0x3cc43f3b	0.023955932
218	0xbd961690	-0.07328522
219	0x3d86a5ee	0.06574617
220	0xbc8dbe58	-0.017302677
221	0x3d565b12	0.052332945
222	0x3d81b39e	0.063330874
223	0x3ca6274f	0.020282416
224	0x3c938bd8	0.018011019
225	0xbe841af2	-0.25801808
226	0xbde2e0f2	-0.11078061
227	0xbe34da85	-0.17661484
228	0xbe3e5452	-0.18586853
229	0xbe107876	-0.14108452
230	0xbe9aa8f4	-0.30207026
231	0xbe4d9bcb	-0.20078962
232	0xbe7904b5	-0.24318202
233	0xbe4263bb	-0.18983357
234	0xbe189b43	-0.14902978
235	0xbe699219	-0.22809638
236	0xbe84a139	-0.25904253
237	0xbe323035	-0.17401202
238	0xbdcd2583	-0.100169204
239	0xbe2a0687	-0.16604052
240	0xbe65e2dc	-0.22449821
241	0xbe796563	-0.24355082
242	0xbe12f190	-0.14349961
243	0xbde3d0b9	-0.11123795
244	0xbe2523b4	-0.16126901
245	0xbdb9577e	-0.09049891
246	0xbe062412	-0.13099697
247	0xbdebe420	-0.11518121
248	0xbe350c99	-0.17680587
249	0xbe4354eb	-0.19075362
250	0x3cb88ce1	0.022528114
251	0x3d23f80a	0.04003147
252	0x3d2320ea	0.03982631
253	0xbd3fe790	-0.046851695
254	0x3c8da562	0.017290775
255	0x3c80e3e6	0.01573367

conv2.bias f4 [32]
0	0x3e5cdb2d	0.21567984
1	0x3e05e696	0.13076243
2	0xbd151d3e	-0.03640484
3	0xbd2c2c6d	-0.042034555
4	0xbd520584	-0.05127479
5	0x3e5ced27	0.21574841
6	0xbc86ef7e	-0.01647162
7	0xbe597b48	-0.21238434
8	0xbe18fb5f	-0.1493964
9	0x3e939886	0.28827304
10	0xbbaf36ed	-0.005347124
11	0x3e695698	0.22786939
12	0x3e6a5906	0.22885522
13	0x3ea368b4	0.3191582
14	0xbcd31c26	-0.025770258
15	0x3e47a515	0.19496568
16	0x3bbaa054	0.005695382
17	0x3d6102b8	0.054934233
18	0x3dc56b98	0.096396625
19	0x3d8a0d0e	0.06740771
20	0x3e8966b0	0.26836157
21	0x3e983689	0.29729107
22	0xbe069c57	-0.13145576
23	0xbd72d305	-0.059283275
24	0x3c24f5ad	0.010068339
25	0xbd69fc0e	-0.057125144
26	0xbe2d3b60	-0.16917181
27	0xbcec8445	-0.028871665
28	0xbe4e752a	-0.20161882
29	0x3ee5b0cf	0.44861457
30	0xbe7ca30d	-0.24671574
31	0x3d6050b6	0.054764472

fc1.weight f4 [120, 800]
0	0xbcf4380e	-0.029811885
1	0xbd660b32	-0.05616302
2	0x3cd5abc5	0.026082883
3	0xbd2317f4	-0.039817765
4	0xbd710adb	-0.058848243
5	0xbd625ab1	-0.05526227
6	0xbca58ecf	-0.020209698
7	0xbcc8969e	-0.024485882
8	0xbbe68c6d	-0.007035783
9	0xbc9d17eb	-0.019176444
10	0xbcb34ec4	-0.021888144
11	0xbd1ac9cd	-0.03779011
12	0xbd1b41d4	-0.037904575
13	0xbc4b6665	-0.0124145495
14	0xbd384091	-0.04498345
15	0xbbcf6b18	-0.0063299052
16	0xbd11439f	-0.03546488
17	0xbc53e41b	-0.012932803
18	0x3bf5b1e4	0.007498013
19	0x3cc1c259	0.023652242
20	0x3b3ef816	0.002913957
21	0x3c87be93	0.016570365
22	0xbd19567b	-0.03743599
23	0xbd1227bc	-0.035682425
24	0xbd15db01	-0.03658581
25	0xbc9d1c46	-0.01917852
26	0xbc1d7320	-0.0096099675
27	0xbbdb3cf5	-0.0066906163
28	0x3c5e5c69	0.013571837
29	0x3b8bc3d2	0.004265287
30	0xbd2ace6d	-0.04170077
31	0xbaf974ec	-0.0019032038
32	0xbd8fac50	-0.07015288
33	0xbc9b51b9	-0.018959867
34	0x3c86218f	0.016373424
35	0xbd60bb1b	-0.054865938
36	0xbc05a274	-0.008156408
37	0xbcb485ab	-0.022036394
38	0x3c0a1226	0.0084271785
39	0xbd0aa25d	-0.033846248
40	0x3b471c28	0.0030381773
41	0xbcc34930	-0.02383861
42	0xbbc0676d	-0.0058717043
43	0xbd006f5b	-0.031356197
44	0x3c2bbd12	0.01048209
45	0xbbf483a1	-0.0074619805
46	0xbc38c799	-0.011278057
47	0xbce2a58d	-0.027666831
48	0xbd438ad0	-0.047739804
49	0xbc857a94	-0.016293801
50	0xbc110d06	-0.008853203
51	0xbce594bf	-0.02802503
52	0xbc3d4b5b	-0.011553611
53	0xbd01dead	-0.0317065
54	0x3ca9b49e	0.020716008
55	0xbbee03d2	-0.007263639
56	0x3c6a0a34	0.014284659
57	0x3c72eea1	0.014827401
58	0x3d086816	0.03330239
59	0xbcbde8e4	-0.02318234
60	0x3c6b360d	0.014356148
61	0x3ce2b05d	0.027671987
62	0xbc6efad4	-0.014586169
63	0x3d016b13	0.031596255
64	0xb9c91c2a	-0.0003835869
65	0xbc154514	-0.009110708
66	0x3d083bc1	0.03326011
67	0xbc10c502	-0.008836033
68	0xbb285c36	-0.0025689728
69	0x3ada205e	0.0016641726
70	0xbd0c0abd	-0.03418993
71	0x3c0a85c3	0.008454743
72	0xbbc36fc4	-0.0059642512
73	0xbc74c120	-0.014938623
74	0x3cf66b4c	0.03008046
75	0x3cd9daf2	0.02659366
76	0xbc81adfc	-0.015830033
77	0x3cf487c2	0.02984989
78	0xbd093f22	-0.033507474
79	0xbcfa2a15	-0.030537644
80	0x3ca35fdb	0.019943168
81	0x3d1036de	0.035208575
82	0xba944dfb	-0.0011314744
83	0x3b80825b	0.0039217896
84	0x3d0cd2eb	0.034380835
85	0x3c941285	0.018075237
86	0x3d06bb82	0.032893665
87	0x3bc109db	0.0058910674
88	0x3cde85c5	0.027163396
89	0x3ccf15f9	0.025279032
90	0x3ce4ed3c	0.027945153
91	0x3cb66496	0.02226476
92	0xbd09023c	-0.033449396
93	0xbb675e85	-0.003530414
94	0x3bf7de48	0.00756434
95	0xbc355f32	-0.01107006
96	0x3bbca906	0.005757454
97	0x3c88f0da	0.01671641
98	0xbcfd5182	-0.030922655
99	0xbce240cc	-0.027618788
100	0xbce632c9	-0.028100388
101	0xbd011490	-0.03151375
102	0xbca4cffa	-0.020118702
103	0xbd4c1cf7	-0.04983231
104	0xbca58dd3	-0.020209229
105	0x3b6e89e3	0.0036398105
106	0x3ccd5fb7	0.025070054
107	0x3bbbd4ab	0.005732139
108	0xbc88e952	-0.016712818
109	0xbd303234	-0.043016627
110	0xbc73e906	-0.0148871
111	0xbc44fa60	-0.012022585
112	0x397b1b81	0.00023947471
113	0xbd1815dd	-0.037130225
114	0xbd33fe6d	-0.04394381
115	0x3cc66330	0.024217218
116	0xbc70d158	-0.014698349
117	0x3c6bacdc	0.014384475
118	0x3b77dbee	0.0037820297
119	0xbd22db4a	-0.03975991
120	0x3c1b6b95	0.009486099
121	0x3c8d36c6	0.017238032
122	0x3bb93f1c	0.005653275
123	0x3cd867c8	0.026416674
124	0xbb8a0cd8	-0.004212957
125	0xbce18007	-0.027526869
126	0x3ca887e5	0.020572612
127	0x3cf2fc3e	0.029661294
128	0xbce2b274	-0.027672984
129	0xbd2353d6	-0.039874874
130	0x3ce94968	0.028477386
131	0xb801052d	-3.0760817e-05
132	0x3cbca136	0.02302609
133	0xbb01fcb2	-0.0019834456
134	0xbd851570	-0.064982295
135	0x3ce485b3	0.027895784
136	0xbd09b567	-0.033620264
137	0xbbed8163	-0.00724809
138	0xbd56dd91	-0.052457396
139	0x3ca10aa1	0.019658389
140	0xbc84a024	-0.016189642
141	0xbc6ca817	-0.014444373
142	0xbc9d2564	-0.019182868
143	0xbcd4f574	-0.025995947
144	0x3c97c79f	0.018527804
145	0xbb7358fd	-0.0037131899
146	0xbd182753	-0.037146877
147	0xbd28038d	-0.04101901
148	0xbd48c777	-0.04901835
149	0x3bf96316	0.007610689
150	0xbca3e78f	-0.020007877
151	0x3a42d2ca	0.0007431923
152	0xbbac0049	-0.0052490574
153	0xbcd0e2f4	-0.025498845
154	0x3ccc9d48	0.024977341
155	0xbccac112	-0.024750266
156	0x3bfb6e85	0.007673087
157	0x3be58bf8	0.007005211
158	0x3d08658a	0.03329996
159	0x3cdf04b5	0.027223924
160	0xbafd21d0	-0.0019312445
161	0x3cd66b08	0.026174083
162	0xbb1e579b	-0.0024161104
163	0xbce500f9	-0.027954565
164	0xbc84a6e5	-0.016192863
165	0x3c9b32a5	0.018945048
166	0xbcee60d0	-0.029098898
167	0xbcbceff0	-0.02306363
168	0x3cb2f81c	0.021846823
169	0x3d028816	0.031868063
170	0x3c2ef15f	0.010677665
171	0x3cf52a1f	0.029927311
172	0x3c9a54bf	0.018839238
173	0xba2aa3ed	-0.0006509412
174	0xbce8b4f0	-0.02840659
175	0x3c3fec65	0.011714076
176	0xbd23be65	-0.039976496
177	0xbd122d22	-0.035687573
178	0xbbf07b7b	-0.007338939
179	0xbc16269e	-0.0091644805
180	0xbb9b87aa	-0.004746397
181	0x3c84af3d	0.016196841
182	0xbd223965	-0.039605517
183	0xb916c35b	-0.0001437789
184	0xbd3c11e0	-0.045915484
185	0x3bcba1a5	0.006214338
186	0x3cedc381	0.029023888
187	0xbd23fdc7	-0.040036943
188	0xbd06a280	-0.032869816
189	0xbd484e5e	-0.04890286
190	0xbd0a0f98	-0.033706278
191	0xbcbef0c6	-0.02330817
192	0x3a80c3df	0.0009823999
193	0xbd42dfde	-0.047576778
194	0xbd5ef50f	-0.054432925
195	0x3b65d60c	0.0035070209
196	0xbcedaac5	-0.029012093
197	0x3c92d10b	0.017921945
198	0xbd893b54	-0.06700769
199	0xbc8edc85	-0.017439136
200	0xbd8a1317	-0.06741922
201	0xbb3343a3	-0.0027353547
202	0xbc16d9b8	-0.009207182
203	0xbcd4f7ec	-0.025997125
204	0xbc094390	-0.008377925
205	0xbd0bdcf5	-0.034146268
206	0xbd89e449	-0.06732995
207	0xbcd5a4da	-0.026079584
208	0xbd7ea534	-0.06216927
209	0xbcabab6f	-0.02095577
210	0xbd774c49	-0.060375486
211	0xbb5e2e38	-0.003390206
212	0xbb1abb10	-0.0023610033
213	0xbd804185	-0.06262497
214	0xbc01f835	-0.007932712
215	0xbcbe8da8	-0.023260906
216	0x3cca438a	0.024690408
217	0xbc1c08ad	-0.009523553
218	0x3c411e28	0.011786975
219	0xbd51452d	-0.05109136
220	0xbc9084c9	-0.017641442
221	0xbbaf9476	-0.005358274
222	0xbb313a65	-0.0027042862
223	0xbcf398da	-0.029735971
224	0xbcdda706	-0.027057182
225	0xbcb7ee6b	-0.022452554
226	0xbd0f6c5a	-0.03501544
227	0xbd10417a	-0.035218693
228	0xbd4706fa	-0.048590638
229	0xbb9d65cc	-0.004803395
230	0xbc52a062	-0.012855621
231	0xbd421bf9	-0.047389958
232	0xbc279fe5	-0.010230993
233	0xbd233e4e	-0.03985434
234	0xbd02f7c6	-0.031974576
235	0xbd2c4d5b	-0.04206596
236	0xbd8cc950	-0.06874335
237	0x3cd2a722	0.02571446
238	0xbc991ef4	-0.018691517
239	0xbd3f3ead	-0.04669063
240	0x3ca0c747	0.019626273
241	0x3cf1e422	0.029527728
242	0xbc9a97ae	-0.018871155
243	0xbca754ff	-0.020426271
244	0xbd76c73a	-0.06024859
245	0xbd153503	-0.03642751
246	0xbb15274c	-0.0022759018
247	0xbba7fb6d	-0.005126408
248	0xbd620db7	-0.05518886
249	0xbb97f836	-0.0046377433
250	0x3ca18a59	0.01971929
251	0xbd59cac5	-0.05317189
252	0xbd14a1de	-0.03628718
253	0xbd203a69	-0.039118204
254	0x3ca1ce73	0.019751763
255	0xbd2c1d77	-0.042020287

fc1.bias f4 [120]
0	0xbd79f607	-0.061025646
1	0x3dff2aad	0.12459312
2	0x3cd2d5a2	0.025736634
3	0x3e44bcbf	0.19212626
4	0x3daac07d	0.083374955
5	0x3dbef9be	0.09324978
6	0xbd0f586f	-0.034996446
7	0x3ddda424	0.10822323
8	0x3e88c8a0	0.26715565
9	0x3d5c5c61	0.053799037
10	0xbe380440	-0.17970371
11	0xbd253477	-0.040333237
12	0xbd3a2a82	-0.045450695
13	0x3e030dae	0.12798187
14	0x3cbb7211	0.02288154
15	0xbd53e60c	-0.05173306
16	0x39da96e0	0.0004169261
17	0xbea248a0	-0.31696033
18	0xbe8525c5	-0.26005378
19	0x39b41ef7	0.00034355346
20	0xbdd10494	-0.10205951
21	0xbe194f96	-0.14971766
22	0x3cbb3385	0.022851715
23	0x3c968460	0.018373668
24	0x3d484ef1	0.04890341
25	0xbe8abc5a	-0.27096826
26	0x3e3e26b5	0.18569453
27	0xbc9d028d	-0.019166255
28	0x3dd233ab	0.10263761
29	0x3be5f049	0.0070171696
30	0xbdb68a60	-0.08913112
31	0x3eee0122	0.4648524
32	0xbbbbcf6a	-0.005731513
33	0x3ef1e14f	0.4724221
34	0xbc4a1f8f	-0.012336626
35	0xbd9e7a4f	-0.07738172
36	0xbd8c2e5f	-0.06844782
37	0x3e1f6e3c	0.15569395
38	0xbc522cd6	-0.0128280725
39	0xbd1ae21d	-0.037813295
40	0xbc3d544b	-0.011555742
41	0x3cd12c08	0.025533691
42	0x3e6c743b	0.23091213
43	0xbd9bfce0	-0.076165915
44	0xbc10dd98	-0.008841895
45	0x3db8d74e	0.09025441
46	0x3c8a3e1c	0.01687532
47	0x3d4211c8	0.04738024
48	0xbb3d32e6	-0.002886945
49	0x3e1c52e6	0.15265998
50	0x3e90c648	0.28276277
51	0xbd30adba	-0.04313443
52	0xbc0ac99b	-0.008470918
53	0xbd14795e	-0.036248557
54	0x3cd96185	0.026535759
55	0x3c8baecd	0.017051125
56	0x3c57936e	0.013157709
57	0x3e2d0c87	0.1689931
58	0xbd2d0e96	-0.04225024
59	0x3c934ee1	0.017981948
60	0x3e81408f	0.25244567
61	0xbca4ef38	-0.0201336
62	0xbcd36d3e	-0.025808927
63	0x3dfde28f	0.12396728
64	0x3c515ac0	0.012777984
65	0x3cd9baae	0.026578274
66	0x3e6a8db0	0.22905612
67	0xbd47bd24	-0.048764363
68	0x3b5b6c42	0.0033481275
69	0x3b32f2de	0.0027305405
70	0xbe2b4d6c	-0.16728753
71	0xba1ef703	-0.00060640293
72	0x3c0ff80e	0.008787168
73	0x3eba8c93	0.36435375
74	0xbdb188ce	-0.086686715
75	0x3ebc454f	0.36771628
76	0xbd259d81	-0.04043341
77	0x3dbd048c	0.09229383
78	0xbd8ad8ed	-0.067796566
79	0x3ec94513	0.39310512
80	0x3caa5722	0.020793501
81	0x3e93fcd5	0.28903833
82	0x3b16305a	0.0022917003
83	0xbda2e57b	-0.07953926
84	0xbe579f3d	-0.21056838
85	0x3e6c3e1c	0.23070568
86	0x3d9e2ef3	0.077237986
87	0x3d9c8f48	0.07644516
88	0x3ea64252	0.32472473
89	0x3e5118b6	0.20419583
90	0xbc04c4a6	-0.008103525
91	0xbd07de34	-0.033170894
92	0x3e438650	0.19094205
93	0xbcb33668	-0.021876529
94	0xbc96b3a6	-0.01839621
95	0x3dd07260	0.10178065
96	0x3e99c5ec	0.30033815
97	0x3b8803c6	0.0041508405
98	0xbbef3198	-0.007299613
99	0x3e64b062	0.2233291
100	0x3cf7dc27	0.030256344
101	0x3e97d2be	0.2965297
102	0x3dd3639f	0.103217356
103	0x3c454ae2	0.012041779
104	0x3e82c6c3	0.25542268
105	0x3ed1c88f	0.40973327
106	0x3ab0026e	0.0013428458
107	0xbd12d549	-0.035847936
108	0xbd0137f3	-0.031547498
109	0x3ee8c99f	0.45466325
110	0xbd1f1b14	-0.038844183
111	0x3c3487a6	0.011018669
112	0x3e8a6461	0.27029708
113	0xbc3492ec	-0.011021357
114	0x3c933371	0.017968865
115	0xbbd000c3	-0.006347747
116	0x3c316b11	0.010828749
117	0xbb8919a3	-0.0041839643
118	0xbca89aab	-0.020581564
119	0x3e921c56	0.28537244

fc2.weight f4 [84, 120]
0	0xbd0d1cb0	-0.034451187
1	0x3db2daa8	0.087331116
2	0xbd2269ad	-0.03965156
3	0x3b0ef864	0.0021815533
4	0xbd8d2d86	-0.068934485
5	0xbe3f1166	-0.1865898
6	0xbbc7c0ef	-0.0060959975
7	0xbdc47aa5	-0.09593705
8	0x3dd26e8b	0.10274991
9	0x3dded38a	0.108801916
10	0x3c32c2f8	0.010910742
11	0x3c41f62a	0.011838475
12	0x3d47065e	0.048590057
13	0xbb74c8aa	-0.003735105
14	0x3d2dc5c0	0.042424917
15	0x3d657bcc	0.056026265
16	0xbdc87957	-0.09788769
17	0x3d851383	0.06497862
18	0x3df1f9e3	0.1181524
19	0x3db9c382	0.09070493
20	0xbe33fe79	-0.17577542
21	0x3d86495a	0.065569595
22	0xbd7926d1	-0.060828034
23	0x3d947b56	0.07250087
24	0x3dbe4f13	0.09292426
25	0x3d8e2c4f	0.06942045
26	0xbdae5cc3	-0.08513787
27	0x3dd09df8	0.1018638
28	0x3c807306	0.015679847
29	0x3dc02b09	0.09383208
30	0x3b3d4169	0.0028878099
31	0xbe3b1564	-0.18269879
32	0x3d15417b	0.0364394
33	0x3ddf9665	0.10917357
34	0xbd43cde5	-0.04780378
35	0xbc784a38	-0.015154414
36	0x3cbef7ab	0.023311457
37	0xbd4a5f1a	-0.049407102
38	0x3e503a1c	0.20334667
39	0x3c8ac81f	0.016941128
40	0xbcb2bd1b	-0.021818688
41	0x3cb0d7da	0.021587301
42	0x3db74ae4	0.08949831
43	0x3ddcfffb	0.10791012
44	0x3e0ce533	0.13759308
45	0xbc72f3ba	-0.014828617
46	0x3c9fd8d7	0.019512577
47	0x3cc24824	0.02371604
48	0xbcc7f3b1	-0.024408193
49	0x3c406c19	0.0117445225
50	0x3d3202a4	0.04345955
51	0x3d9b8bf7	0.075950556
52	0x3cef8d2a	0.029242117
53	0x3dc157bb	0.094405614
54	0xbc8eb905	-0.017422209
55	0x3d98b0ec	0.0745562
56	0x3d3f671b	0.04672919
57	0x3d9b664f	0.07587873
58	0xbdba96e5	-0.09110812
59	0x3d89ed1e	0.0673468
60	0xbe60c214	-0.21949035
61	0xbd830010	-0.06396496
62	0xbce4f347	-0.027948035
63	0x3d23dc72	0.040005155
64	0xbdd90d3a	-0.10598226
65	0x3d6f7787	0.0584636
66	0x3d08474d	0.033271123
67	0x3bd6200f	0.0065345834
68	0xbc802bdf	-0.01564592
69	0xbdbec031	-0.09314001
70	0xbe3a7734	-0.18209535
71	0xbd2d74bc	-0.042347655
72	0x3dabbebc	0.08385989
73	0xbe3e75f7	-0.18599688
74	0x3e148723	0.14504676
75	0xbe4fbe94	-0.20287544
76	0xbdaf6d2d	-0.085657455
77	0x3dc37dd2	0.09545483
78	0x3e2b10c2	0.16705611
79	0xbe00f947	-0.12595092
80	0xbbc52ff4	-0.0060176793
81	0x3d32e506	0.043675445
82	0x3c4c05f2	0.012452589
83	0x3a65f019	0.0008771434
84	0x3dc5c827	0.09657317
85	0x3d6129bc	0.05497144
86	0x3d79e7c1	0.061012033
87	0xbe3a821b	-0.18213694
88	0xbca157e0	-0.019695222
89	0xbd922806	-0.0713654
90	0x3cd8a1bb	0.026444307
91	0x3d8b6a76	0.06807415
92	0xbdb84530	-0.089975715
93	0xbc6d2231	-0.014473484
94	0xbcdec6f3	-0.027194476
95	0x3dbedd79	0.09319586
96	0x3d910799	0.07081527
97	0x3bed9f9e	0.007251694
98	0xbcd260b8	-0.025680885
99	0xbdbe0a77	-0.0927934
100	0xbe5ff545	-0.21870907
101	0xbdceb2d5	-0.10092703
102	0x3df4c9a8	0.119525254
103	0x3dda7665	0.10667113
104	0x3d24f10a	0.040268935
105	0xbe2bb30e	-0.16767523
106	0x3ccfe8d7	0.025379581
107	0xba0f8f91	-0.000547641
108	0x3d85410f	0.065065496
109	0xbdf110a5	-0.11770753
110	0x3d1a7672	0.037710615
111	0x3da84cef	0.08217799
112	0xbce9fd57	-0.028563185
113	0x3cc4cfb4	0.024024822
114	0xbd2b7c77	-0.041866746
115	0xb9f62334	-0.00046947005
116	0x3c9a8b1a	0.018865157
117	0x3ce04d00	0.027380466
118	0x3d25324a	0.040331163
119	0xbd763b09	-0.060114894
120	0xbd55d032	-0.052200504
121	0x3e2671aa	0.16254297
122	0x3d93a346	0.07208876
123	0xbdb134cf	-0.086526506
124	0x3e22c52a	0.15895525
125	0x3d620395	0.055179197
126	0xbdc31cb8	-0.09526962
127	0xbd44f6d9	-0.048086975
128	0xbe03f18d	-0.12885113
129	0xbdee094b	-0.11622866
130	0x3c200b79	0.00976836
131	0xbd83ec77	-0.064415865
132	0xbca90cc5	-0.020635972
133	0xbe247b88	-0.16062748
134	0x3d916a39	0.071003385
135	0x3d9a63e8	0.07538587
136	0xbcefc10f	-0.029266862
137	0x3cb356a5	0.021891901
138	0x3d3180c0	0.043335676
139	0xbd9317ab	-0.07182249
140	0xbd799456	-0.06093248
141	0xbca03858	-0.019558117
142	0x3c7ca1d7	0.015419445
143	0x3cc2ac34	0.023763753
144	0x3d056a02	0.0325718
145	0x3ce219c1	0.027600171
146	0xbcae5e07	-0.02128507
147	0xbdf15e99	-0.11785621
148	0x3cff3fd1	0.03115836
149	0x3d464e45	0.048414487
150	0xbdbfe64a	-0.09370096
151	0xbd0f3947	-0.034966733
152	0x3ccb68bc	0.024830215
153	0x3d4ad085	0.049515266
154	0x3ce36f63	0.027763074
155	0xbd862179	-0.06549353
156	0xbc8bf0e4	-0.017082639
157	0xbc18f64a	-0.009336064
158	0xbde4d39b	-0.11173173
159	0xbda685c1	-0.0813098
160	0x3ddb44e1	0.10706497
161	0xbcba96d5	-0.022777
162	0xbe49e8b2	-0.19717672
163	0x3e0b3383	0.13593869
164	0xbdb01c12	-0.08599104
165	0x3d76e54b	0.060277265
166	0x3c985af7	0.018598063
167	0x3addc642	0.0016920047
168	0xbb390b17	-0.002823537
169	0xbe69827e	-0.22803685
170	0xbe580f64	-0.21099621
171	0x3d51bdf0	0.05120653
172	0x3daf9514	0.08573356
173	0xbdf489dd	-0.11940358
174	0xbdc5fa62	-0.09666897
175	0xbd90740f	-0.070533864
176	0xbc394a0d	-0.011309159
177	0x3ddf5552	0.109049454
178	0xbd51e11b	-0.051240068
179	0xbcd4644e	-0.025926735
180	0xbe512578	-0.2042445
181	0xbd02b530	-0.031911075
182	0xbbba91a7	-0.0056936326
183	0xbcf662aa	-0.030076344
184	0x3e1cc51c	0.15309566
185	0xbd277f40	-0.04089284
186	0xbe127159	-0.14301051
187	0xbd9d5120	-0.07681489
188	0x3cbe1300	0.02320242
189	0x3cf769d3	0.030201828
190	0xbd5dc152	-0.054139443
191	0x3da89d46	0.082331225
192	0xbca29636	-0.019847017
193	0xbe0f50b8	-0.13995636
194	0x3d5f39aa	0.054498352
195	0xbdad4a0a	-0.084613875
196	0xbc2baae6	-0.010477757
197	0xbcc815bd	-0.024424428
198	0xbb8eb548	-0.0043551065
199	0x3d8dc073	0.069214724
200	0xbd648513	-0.055790972
201	0x3bcb9cd5	0.006213764
202	0xbd72b1ad	-0.059251476
203	0xbdebcdd4	-0.11513868
204	0x3caddcf3	0.02122352
205	0xbd6ca2b3	-0.05777235
206	0x3ba8df18	0.005153548
207	0x3d18a1ac	0.037263557
208	0x3d880a04	0.06642535
209	0xbd866343	-0.065619014
210	0x3cefa985	0.029255638
211	0x3ce4c905	0.027927885
212	0xbe058f2c	-0.13042897
213	0xbd76964d	-0.06020193
214	0xbb295138	-0.0025835764
215	0xbe25676b	-0.16152732
216	0x3d2117de	0.039329402
217	0x3d189364	0.037249938
218	0xbd972ed7	-0.07381981
219	0x3d00f46e	0.031483106
220	0xbe352ce6	-0.17692909
221	0xbc007844	-0.007841174
222	0x3a83ac75	0.0010045903
223	0xbe0e8aca	-0.13920131
224	0xbd9b45ab	-0.075816475
225	0xbd2cd399	-0.042193983
226	0xbd3422e4	-0.043978587
227	0x3df78455	0.12085787
228	0x3d9929fd	0.07478712
229	0x3a3e164d	0.0007251248
230	0xbd4f3e27	-0.050596382
231	0xbd7959df	-0.060876723
232	0x3c651576	0.0139821675
233	0xbdac0b84	-0.08400634
234	0xbd40624f	-0.046968754
235	0xbd8ab6ae	-0.06773125
236	0xbc816b49	-0.015798228
237	0x3d926679	0.07148451
238	0x3d38cabf	0.04511523
239	0xbcc3cd9e	-0.023901757
240	0xbca7619d	-0.020432288
241	0xbd1ee8a2	-0.038796075
242	0x3c8e5fde	0.017379697
243	0xbd9dc148	-0.07702881
244	0xbd386ebc	-0.04502748
245	0xbd839319	-0.06424541
246	0xbca76eb8	-0.020438537
247	0xbbcca911	-0.00624574
248	0x3c77560f	0.015096202
249	0xbcf78817	-0.03021626
250	0xbc7da181	-0.0154804
251	0xbd1cd97c	-0.038293347
252	0xbd51c61a	-0.051214315
253	0xbd381028	-0.044937283
254	0x3c83e4dc	0.01610034
255	0x3ba56f4a	0.005048667

fc2.bias f4 [84]
0	0xbe702e17	-0.23455082
1	0xbdc523fb	-0.09626003
2	0xbcd389ab	-0.025822481
3	0xbdbfb6b3	-0.09361019
4	0xbe1440cd	-0.14477845
5	0x3e49b5cf	0.1969826
6	0xbd992d4b	-0.07479342
7	0xbdaf9c20	-0.085747
8	0x3e2be8e9	0.16788067
9	0x3d599fe9	0.053131018
10	0x3d30fe72	0.043211408
11	0x3eac28fa	0.33625013
12	0xbe024a66	-0.12723693
13	0xbc9f89a1	-0.019474806
14	0xbca2571c	-0.019816928
15	0xbdb3209f	-0.08746456
16	0x3e58aa79	0.2115878
17	0x3e8b62b1	0.27223733
18	0x3e658db7	0.22417341
19	0x3ed0bea8	0.4077046
20	0x3c8d1530	0.017222017
21	0x3d27d6a7	0.040976193
22	0x3ddc7a2e	0.107654914
23	0xbcba01ba	-0.022705901
24	0xbc1746f1	-0.009233222
25	0xbd420d9b	-0.047376256
26	0xbe3c6992	-0.18399647
27	0x3e1c49bb	0.15262501
28	0x3e266b5d	0.16251893
29	0xbe043cec	-0.12913865
30	0x3eb00791	0.34380773
31	0x3e278e97	0.16362987
32	0xbe18d70b	-0.14925782
33	0xbd939dc3	-0.07207825
34	0x3d518eb7	0.051161494
35	0x3c550365	0.013001298
36	0x3b4e50a9	0.0031481183
37	0xbe254daf	-0.16142915
38	0xbe235b61	-0.15952827
39	0x3d37e5ac	0.044896767
40	0x3e373b5b	0.17893736
41	0x3be70abf	0.0070508416
42	0x3e683afb	0.2267875
43	0x3d8d3774	0.068953425
44	0x3dd48686	0.10377221
45	0xba9e1c48	-0.0012062872
46	0xbd75f951	-0.06005222
47	0xbd30c68e	-0.043158107
48	0x3de64eac	0.11245474
49	0xbdf0b9b2	-0.117541686
50	0xbdec5181	-0.11538983
51	0x3e7a7909	0.24460234
52	0x3e4a97ee	0.19784519
53	0x3c8c7d75	0.017149666
54	0xbc8ef608	-0.017451301
55	0x3e508c42	0.20366004
56	0x3ed042f7	0.4067609
57	0x3d6533af	0.055957492
58	0xbdefd060	-0.11709666
59	0x3cb0a90c	0.021564983
60	0x3ee6d200	0.45082092
61	0x3e7f5332	0.2493408
62	0xbd0a122c	-0.033708736
63	0xbce6b6d2	-0.028163347
64	0xbd62b9c9	-0.05535296
65	0x3d6e94a3	0.05824722
66	0xbe68e917	-0.22745167
67	0x3ee9e657	0.45683548
68	0x3e64ca19	0.22342719
69	0x3ea4366f	0.3207278
70	0xbadf800e	-0.0017051713
71	0xbd627371	-0.055285875
72	0x3e5cd940	0.2156725
73	0x3b7eefc0	0.0038900226
74	0x3db11c6f	0.086480014
75	0x3d6f0e57	0.058363285
76	0x3e21ee95	0.15813668
77	0xbd89294b	-0.06697329
78	0xbdc787ee	-0.097427234
79	0xbe30474e	-0.172147
80	0xbe35b130	-0.17743373
81	0xbc93b932	-0.018032644
82	0x3d00b3c0	0.031421423
83	0x3eec3b59	0.4613903

fc3.weight f4 [10, 84]
0	0x3dacbb55	0.08434168
1	0xbdcd8990	-0.100360036
2	0xbd6c5636	-0.057699405
3	0x3c911f01	0.01771498
4	0xbd649fe0	-0.05581653
5	0xbd9bc51b	-0.07605954
6	0xbdc2b8e2	-0.0950792
7	0x3cf82094	0.030288972
8	0xbd997669	-0.07493288
9	0x3da9da99	0.08293647
10	0x3d13a88c	0.03604941
11	0x3d8018e4	0.062547475
12	0xbd538c03	-0.051647197
13	0xbd3e3bce	-0.046443753
14	0xbe1f047b	-0.15529053
15	0xbdca76b0	-0.09885919
16	0xbe10259d	-0.14076848
17	0x3cecd70f	0.028911142
18	0xbd75a5e1	-0.059972648
19	0x3c97f136	0.018547636
20	0x3ba88d91	0.005143829
21	0xbd06fac9	-0.03295401
22	0x3d9cc8b2	0.07655467
23	0xbd7b8e90	-0.061415255
24	0x3db34163	0.08752706
25	0xbe086624	-0.13320214
26	0x3e3b474d	0.18288918
27	0x3e04894f	0.12943004
28	0xbd99f77d	-0.07517908
29	0xbe8ded80	-0.2772026
30	0x3d539a2a	0.051660694
31	0x3d726307	0.05917647
32	0xbd775956	-0.06038793
33	0xbccdc8d0	-0.025120169
34	0x3de752f4	0.11295119
35	0xbe578d29	-0.21049942
36	0xbd437a11	-0.047723833
37	0x3ce6f46f	0.028192727
38	0xbcd75aef	-0.026288478
39	0xbdcd3eaf	-0.100217216
40	0x3e0ac2d8	0.1355089
41	0x3ddbd885	0.10734657
42	0xbe75ecd6	-0.24016127
43	0xbe4801b1	-0.19531895
44	0xbcec8c1d	-0.028875405
45	0x3de5bdc9	0.11217839
46	0xbd848c67	-0.06472092
47	0x3ce9d54c	0.02854409
48	0xbe8fe325	-0.28102985
49	0x3b32d911	0.0027290026
50	0xbd13ef59	-0.03611693
51	0xbd105821	-0.035240296
52	0x3dc50d84	0.096217185
53	0x3c881349	0.016610758
54	0xbd93f219	-0.07223911
55	0xbdafe48d	-0.085885145
56	0xbe3f744e	-0.1869671
57	0x3deb5ab8	0.114919126
58	0xbd12b178	-0.03581378
59	0x3cccb998	0.024990842
60	0x3e0f025b	0.13965742
61	0x3bf7b25f	0.0075591053
62	0xbd604e82	-0.05476237
63	0xbe44a730	-0.19204402
64	0xbd5667ad	-0.052344967
65	0x3c605211	0.013691441
66	0x3e2e3810	0.17013574
67	0xbe0d2b34	-0.13786012
68	0xbdfc92d9	-0.123326965
69	0x3da6ebf5	0.08150474
70	0xbde0bd36	-0.10973589
71	0x3d8a0b9a	0.06740494
72	0x3d9d1206	0.07669453
73	0xbc87dd09	-0.01658489
74	0xbdd90fe6	-0.105987355
75	0xbd82857f	-0.063731186
76	0xbbf97bec	-0.0076136496
77	0x3d470e61	0.048597697
78	0x3d57786c	0.052605078
79	0x3d249e35	0.04018994
80	0xbd6ac09b	-0.05731259
81	0xbe763303	-0.24042897
82	0x3e28f1e6	0.16498527
83	0xbd520459	-0.051273677
84	0xbc253649	-0.010083743
85	0x3d8e52dd	0.06949399
86	0xbc96ecee	-0.018423524
87	0xbde309c7	-0.11085849
88	0xbd0da506	-0.034581207
89	0xbdbbb931	-0.09166182
90	0xbe338ced	-0.17534228
91	0xbcff4940	-0.031162858
92	0x3dac55c1	0.08414794
93	0xbc9e9387	-0.019357456
94	0x3d9ecdfa	0.07754131
95	0xbe0504a3	-0.1299005
96	0xbe0587a0	-0.13040018
97	0xbe33cc60	-0.17558432
98	0xbde85993	-0.1134521
99	0xbd633a6a	-0.05547563
100	0xbe440524	-0.19142586
101	0xbe80a2a2	-0.2512408
102	0xbde28833	-0.11061134
103	0xbdd6945d	-0.10477517
104	0xbd59f5d3	-0.053212952
105	0xbe3744a9	-0.17897286
106	0x3b61d09b	0.0034456614
107	0xbe9dbf41	-0.30809978
108	0x3d41d525	0.04732241
109	0xbd8f231c	-0.069891185
110	0xbe60c531	-0.21950223
111	0xbd1e840b	-0.038700145
112	0x3c7af5d3	0.015317398
113	0x3e2f0c39	0.17094506
114	0x3d5c92d2	0.053850956
115	0x3c94467c	0.018100016
116	0xbd56d4db	-0.05244909
117	0x3da9f771	0.08299149
118	0xbd752582	-0.059850223
119	0x3d13fdde	0.03613078
120	0x3d9a67de	0.07539342
121	0xbde07c21	-0.10961176
122	0x3e55a61b	0.20864145
123	0x3d48a614	0.04898651
124	0xbe84c33e	-0.25930208
125	0x3d6f40dc	0.058411464
126	0xbdd2aa8f	-0.10286438
127	0x3e051ee9	0.13000073
128	0xbe1f5083	-0.15558057
129	0xbbaebb6b	-0.0053324006
130	0xbd84d73b	-0.064863645
131	0x3d169886	0.03676655
132	0xbdf2f39a	-0.118628696
133	0xbcec5fb4	-0.028854229
134	0xbe087c68	-0.13328707
135	0xbe5f026b	-0.21778266
136	0x3d5f70c0	0.054550886
137	0x3d8d32cc	0.06894454
138	0x3d92b152	0.071627274
139	0x3cad562b	0.021159252
140	0xbd50a1e0	-0.050935626
141	0xbdd95523	-0.10611942
142	0x3d96f21f	0.073704
143	0xbc42178b	-0.011846433
144	0xbe06fa9b	-0.13181536
145	0x3d36d0ba	0.04463265
146	0x3d993a7d	0.07481859
147	0xbdf664c0	-0.12030935
148	0xbe22fdb2	-0.1591709
149	0x3d9b6821	0.075882204
150	0x3e35ca6c	0.17752999
151	0xbeb04ea4	-0.34434998
152	0xbd36292b	-0.044472855
153	0x3d965eb4	0.07342282
154	0xbde00e4a	-0.109402254
155	0xbcb274ac	-0.02178415
156	0xbe727309	-0.23676695
157	0xbd9232f1	-0.071386226
158	0x3dd5a462	0.10431744
159	0x3cb06733	0.021533584
160	0xbda319dc	-0.07963917
161	0x3dfab936	0.122423574
162	0xbe1ae384	-0.15125853
163	0x3d9d29e4	0.07674006
164	0xba052641	-0.00050792476
165	0xbd6c7e09	-0.057737384
166	0xbe480bb9	-0.19535722
167	0xbbd596c4	-0.006518217
168	0xbddb729d	-0.1071522
169	0x3ca9fbda	0.020749975
170	0xbca5e1ab	-0.020249208
171	0x3e41e04f	0.18933223
172	0xbcf67bff	-0.030088423
173	0x3b2fd409	0.0026829264
174	0xbe0ed830	-0.13949656
175	0x3c52f565	0.012875889
176	0xbe44b049	-0.19207872
177	0xbd2e488d	-0.04254966
178	0xbccacb10	-0.02475503
179	0xbd3c4fd1	-0.045974556
180	0x3e044ac8	0.12919152
181	0xbd61d68b	-0.055136245
182	0x3d322830	0.043495357
183	0x3cf67847	0.03008665
184	0x3df5a400	0.11994171
185	0x3ded59cf	0.11589395
186	0xbe2c7879	-0.16842832
187	0xbdeb4d53	-0.11489358
188	0xbda6113b	-0.08108755
189	0x3c2e856a	0.010651926
190	0xbd9ec48c	-0.07752332
191	0xbddaf7e9	-0.10691816
192	0xbe20aafc	-0.15690225
193	0xbc99c300	-0.018769741
194	0x3ded579b	0.11588975
195	0xbc8dfb32	-0.017331693
196	0xbd51f55f	-0.051259395
197	0x3df1a424	0.117988855
198	0x3cefcfec	0.02927395
199	0xbe1ecaa9	-0.15506996
200	0xbdcd0c33	-0.100120924
201	0xbe8051ae	-0.25062317
202	0x3bd270e6	0.00642215
203	0x3c5ab7cd	0.013349486
204	0xbc1062e3	-0.008812639
205	0xbd35e89c	-0.044411287
206	0xbd81cab9	-0.063374944
207	0x3c86ea9b	0.01646929
208	0x3db286e2	0.08717133
209	0x3cdf28df	0.027241169
210	0x3d0aafcf	0.03385907
211	0xbd218611	-0.039434496
212	0xbe38c722	-0.18044713
213	0x3dc93836	0.098251745
214	0xbdcb2b39	-0.099203534
215	0x3c73e0da	0.014885152
216	0x3e05ca95	0.1306556
217	0xbdabedad	-0.083949424
218	0xbd55b456	-0.052173935
219	0x3e46042c	0.19337529
220	0x3e21074d	0.15725441
221	0x3da459c7	0.08024936
222	0xbd22d58f	-0.039754447
223	0xbd391993	-0.045190405
224	0x3e216675	0.1576174
225	0xbdb8e459	-0.09027929
226	0xbe0c16e4	-0.13680607
227	0x3c7295ac	0.014806192
228	0x3dacd0a0	0.084382296
229	0xbe21b9bf	-0.15793513
230	0x3e0c6f29	0.13714279
231	0x3e0ebe45	0.1393977
232	0x3d36abaf	0.044597324
233	0xbe2ab5a6	-0.16670856
234	0x3d8e241e	0.069404826
235	0x3d594a3d	0.053049315
236	0xbe03eb63	-0.12882762
237	0xbdc32efd	-0.09530447
238	0x3cd9f2ed	0.026605094
239	0x3d852ec1	0.06503058
240	0xbda6913a	-0.081331685
241	0xbd343a63	-0.044000994
242	0x3db73f31	0.089476
243	0x3cc62b6b	0.024190625
244	0x3e2bfc1a	0.16795388
245	0x3cfb59bd	0.030682439
246	0xbdd875f7	-0.10569375
247	0x3de5bb3e	0.11217354
248	0x399fdf3c	0.00030493166
249	0x3cab23d3	0.020891106
250	0x3cd4a744	0.025958665
251	0x3c9c9bd5	0.019117275
252	0xbe10d7b5	-0.14144786
253	0xbda9a2aa	-0.08282979
254	0xbda51983	-0.080615066
255	0xbe311f91	-0.17297198

fc3.bias f4 [10]
0	0xbe40af6e	-0.18816921
1	0xbe5f5ec0	-0.21813488
2	0x3d18c512	0.037297316
3	0x3e4344cf	0.19069217
4	0x3e89fa75	0.26948896
5	0xbe284447	-0.16432296
6	0x3d721b72	0.059108205
7	0xbd5abd5a	-0.053403236
8	0x3e186bf4	0.14884931
9	0x3bf47965	0.0074607604
